<?xml version="1.0" ?>
<net name="paddle-onnx" version="11">
	<layers>
		<layer id="0" name="x" type="Parameter" version="opset1">
			<data shape="?,3,32,?" element_type="f32"/>
			<rt_info>
				<attribute name="fused_names" version="0" value="x"/>
			</rt_info>
			<output>
				<port id="0" precision="FP32" names="x">
					<dim>-1</dim>
					<dim>3</dim>
					<dim>32</dim>
					<dim>-1</dim>
				</port>
			</output>
		</layer>
		<layer id="1" name="Multiply_10031" type="Const" version="opset1">
			<data element_type="f32" shape="16, 3, 3, 3" offset="0" size="1728"/>
			<output>
				<port id="0" precision="FP32">
					<dim>16</dim>
					<dim>3</dim>
					<dim>3</dim>
					<dim>3</dim>
				</port>
			</output>
		</layer>
		<layer id="2" name="Multiply_9719" type="Convolution" version="opset1">
			<data strides="2, 2" dilations="1, 1" pads_begin="1, 1" pads_end="1, 1" auto_pad="explicit"/>
			<rt_info>
				<attribute name="fused_names" version="0" value="batch_norm_27.b_0, batch_norm_27.tmp_3, batch_norm_27.w_0, batch_norm_27.w_1, batch_norm_27.w_2, conv2d_97.tmp_0"/>
			</rt_info>
			<input>
				<port id="0" precision="FP32">
					<dim>-1</dim>
					<dim>3</dim>
					<dim>32</dim>
					<dim>-1</dim>
				</port>
				<port id="1" precision="FP32">
					<dim>16</dim>
					<dim>3</dim>
					<dim>3</dim>
					<dim>3</dim>
				</port>
			</input>
			<output>
				<port id="2" precision="FP32">
					<dim>-1</dim>
					<dim>16</dim>
					<dim>16</dim>
					<dim>-1</dim>
				</port>
			</output>
		</layer>
		<layer id="3" name="Constant_9724" type="Const" version="opset1">
			<data element_type="f32" shape="1, 16, 1, 1" offset="1728" size="64"/>
			<output>
				<port id="0" precision="FP32">
					<dim>1</dim>
					<dim>16</dim>
					<dim>1</dim>
					<dim>1</dim>
				</port>
			</output>
		</layer>
		<layer id="4" name="batch_norm_27.tmp_3" type="Add" version="opset1">
			<data auto_broadcast="numpy"/>
			<rt_info>
				<attribute name="fused_names" version="0" value="batch_norm_27.b_0, batch_norm_27.tmp_3, batch_norm_27.w_0, batch_norm_27.w_1, batch_norm_27.w_2"/>
			</rt_info>
			<input>
				<port id="0" precision="FP32">
					<dim>-1</dim>
					<dim>16</dim>
					<dim>16</dim>
					<dim>-1</dim>
				</port>
				<port id="1" precision="FP32">
					<dim>1</dim>
					<dim>16</dim>
					<dim>1</dim>
					<dim>1</dim>
				</port>
			</input>
			<output>
				<port id="2" precision="FP32" names="batch_norm_27.tmp_3">
					<dim>-1</dim>
					<dim>16</dim>
					<dim>16</dim>
					<dim>-1</dim>
				</port>
			</output>
		</layer>
		<layer id="5" name="HSwish_5180" type="HSwish" version="opset4">
			<rt_info>
				<attribute name="fused_names" version="0" value="Add_0, Clip_0, Mul_0"/>
			</rt_info>
			<input>
				<port id="0" precision="FP32">
					<dim>-1</dim>
					<dim>16</dim>
					<dim>16</dim>
					<dim>-1</dim>
				</port>
			</input>
			<output>
				<port id="1" precision="FP32">
					<dim>-1</dim>
					<dim>16</dim>
					<dim>16</dim>
					<dim>-1</dim>
				</port>
			</output>
		</layer>
		<layer id="6" name="Multiply_10046" type="Const" version="opset1">
			<data element_type="f32" shape="16, 1, 1, 3, 3" offset="1792" size="576"/>
			<output>
				<port id="0" precision="FP32">
					<dim>16</dim>
					<dim>1</dim>
					<dim>1</dim>
					<dim>3</dim>
					<dim>3</dim>
				</port>
			</output>
		</layer>
		<layer id="7" name="Multiply_9729" type="GroupConvolution" version="opset1">
			<data strides="1, 1" pads_begin="1, 1" pads_end="1, 1" dilations="1, 1" auto_pad="explicit"/>
			<rt_info>
				<attribute name="fused_names" version="0" value="batch_norm_28.b_0, batch_norm_28.tmp_3, batch_norm_28.w_0, batch_norm_28.w_1, batch_norm_28.w_2"/>
			</rt_info>
			<input>
				<port id="0" precision="FP32">
					<dim>-1</dim>
					<dim>16</dim>
					<dim>16</dim>
					<dim>-1</dim>
				</port>
				<port id="1" precision="FP32">
					<dim>16</dim>
					<dim>1</dim>
					<dim>1</dim>
					<dim>3</dim>
					<dim>3</dim>
				</port>
			</input>
			<output>
				<port id="2" precision="FP32" names="depthwise_conv2d_13.tmp_0">
					<dim>-1</dim>
					<dim>16</dim>
					<dim>16</dim>
					<dim>-1</dim>
				</port>
			</output>
		</layer>
		<layer id="8" name="Constant_9734" type="Const" version="opset1">
			<data element_type="f32" shape="1, 16, 1, 1" offset="2368" size="64"/>
			<output>
				<port id="0" precision="FP32">
					<dim>1</dim>
					<dim>16</dim>
					<dim>1</dim>
					<dim>1</dim>
				</port>
			</output>
		</layer>
		<layer id="9" name="batch_norm_28.tmp_3" type="Add" version="opset1">
			<data auto_broadcast="numpy"/>
			<rt_info>
				<attribute name="fused_names" version="0" value="batch_norm_28.b_0, batch_norm_28.tmp_3, batch_norm_28.w_0, batch_norm_28.w_1, batch_norm_28.w_2"/>
			</rt_info>
			<input>
				<port id="0" precision="FP32">
					<dim>-1</dim>
					<dim>16</dim>
					<dim>16</dim>
					<dim>-1</dim>
				</port>
				<port id="1" precision="FP32">
					<dim>1</dim>
					<dim>16</dim>
					<dim>1</dim>
					<dim>1</dim>
				</port>
			</input>
			<output>
				<port id="2" precision="FP32" names="batch_norm_28.tmp_3">
					<dim>-1</dim>
					<dim>16</dim>
					<dim>16</dim>
					<dim>-1</dim>
				</port>
			</output>
		</layer>
		<layer id="10" name="HSwish_5183" type="HSwish" version="opset4">
			<rt_info>
				<attribute name="fused_names" version="0" value="Add_1, Clip_1, Mul_1"/>
			</rt_info>
			<input>
				<port id="0" precision="FP32">
					<dim>-1</dim>
					<dim>16</dim>
					<dim>16</dim>
					<dim>-1</dim>
				</port>
			</input>
			<output>
				<port id="1" precision="FP32">
					<dim>-1</dim>
					<dim>16</dim>
					<dim>16</dim>
					<dim>-1</dim>
				</port>
			</output>
		</layer>
		<layer id="11" name="Multiply_10060" type="Const" version="opset1">
			<data element_type="f32" shape="32, 16, 1, 1" offset="2432" size="2048"/>
			<output>
				<port id="0" precision="FP32">
					<dim>32</dim>
					<dim>16</dim>
					<dim>1</dim>
					<dim>1</dim>
				</port>
			</output>
		</layer>
		<layer id="12" name="Multiply_9739" type="Convolution" version="opset1">
			<data strides="1, 1" dilations="1, 1" pads_begin="0, 0" pads_end="0, 0" auto_pad="explicit"/>
			<rt_info>
				<attribute name="fused_names" version="0" value="Add_1, Clip_1, Constant_2, Mul_1, batch_norm_28.tmp_4, batch_norm_29.b_0, batch_norm_29.tmp_3, batch_norm_29.w_0, batch_norm_29.w_1, batch_norm_29.w_2, conv2d_39.w_0, conv2d_98.tmp_0"/>
			</rt_info>
			<input>
				<port id="0" precision="FP32">
					<dim>-1</dim>
					<dim>16</dim>
					<dim>16</dim>
					<dim>-1</dim>
				</port>
				<port id="1" precision="FP32">
					<dim>32</dim>
					<dim>16</dim>
					<dim>1</dim>
					<dim>1</dim>
				</port>
			</input>
			<output>
				<port id="2" precision="FP32">
					<dim>-1</dim>
					<dim>32</dim>
					<dim>16</dim>
					<dim>-1</dim>
				</port>
			</output>
		</layer>
		<layer id="13" name="Constant_9744" type="Const" version="opset1">
			<data element_type="f32" shape="1, 32, 1, 1" offset="4480" size="128"/>
			<output>
				<port id="0" precision="FP32">
					<dim>1</dim>
					<dim>32</dim>
					<dim>1</dim>
					<dim>1</dim>
				</port>
			</output>
		</layer>
		<layer id="14" name="batch_norm_29.tmp_3" type="Add" version="opset1">
			<data auto_broadcast="numpy"/>
			<rt_info>
				<attribute name="fused_names" version="0" value="batch_norm_29.b_0, batch_norm_29.tmp_3, batch_norm_29.w_0, batch_norm_29.w_1, batch_norm_29.w_2"/>
			</rt_info>
			<input>
				<port id="0" precision="FP32">
					<dim>-1</dim>
					<dim>32</dim>
					<dim>16</dim>
					<dim>-1</dim>
				</port>
				<port id="1" precision="FP32">
					<dim>1</dim>
					<dim>32</dim>
					<dim>1</dim>
					<dim>1</dim>
				</port>
			</input>
			<output>
				<port id="2" precision="FP32" names="batch_norm_29.tmp_3">
					<dim>-1</dim>
					<dim>32</dim>
					<dim>16</dim>
					<dim>-1</dim>
				</port>
			</output>
		</layer>
		<layer id="15" name="HSwish_5186" type="HSwish" version="opset4">
			<rt_info>
				<attribute name="fused_names" version="0" value="Add_2, Clip_2, Mul_2"/>
			</rt_info>
			<input>
				<port id="0" precision="FP32">
					<dim>-1</dim>
					<dim>32</dim>
					<dim>16</dim>
					<dim>-1</dim>
				</port>
			</input>
			<output>
				<port id="1" precision="FP32">
					<dim>-1</dim>
					<dim>32</dim>
					<dim>16</dim>
					<dim>-1</dim>
				</port>
			</output>
		</layer>
		<layer id="16" name="Multiply_10075" type="Const" version="opset1">
			<data element_type="f32" shape="32, 1, 1, 3, 3" offset="4608" size="1152"/>
			<output>
				<port id="0" precision="FP32">
					<dim>32</dim>
					<dim>1</dim>
					<dim>1</dim>
					<dim>3</dim>
					<dim>3</dim>
				</port>
			</output>
		</layer>
		<layer id="17" name="Multiply_9749" type="GroupConvolution" version="opset1">
			<data strides="1, 1" pads_begin="1, 1" pads_end="1, 1" dilations="1, 1" auto_pad="explicit"/>
			<rt_info>
				<attribute name="fused_names" version="0" value="batch_norm_30.b_0, batch_norm_30.tmp_3, batch_norm_30.w_0, batch_norm_30.w_1, batch_norm_30.w_2"/>
			</rt_info>
			<input>
				<port id="0" precision="FP32">
					<dim>-1</dim>
					<dim>32</dim>
					<dim>16</dim>
					<dim>-1</dim>
				</port>
				<port id="1" precision="FP32">
					<dim>32</dim>
					<dim>1</dim>
					<dim>1</dim>
					<dim>3</dim>
					<dim>3</dim>
				</port>
			</input>
			<output>
				<port id="2" precision="FP32" names="depthwise_conv2d_14.tmp_0">
					<dim>-1</dim>
					<dim>32</dim>
					<dim>16</dim>
					<dim>-1</dim>
				</port>
			</output>
		</layer>
		<layer id="18" name="Constant_9754" type="Const" version="opset1">
			<data element_type="f32" shape="1, 32, 1, 1" offset="5760" size="128"/>
			<output>
				<port id="0" precision="FP32">
					<dim>1</dim>
					<dim>32</dim>
					<dim>1</dim>
					<dim>1</dim>
				</port>
			</output>
		</layer>
		<layer id="19" name="batch_norm_30.tmp_3" type="Add" version="opset1">
			<data auto_broadcast="numpy"/>
			<rt_info>
				<attribute name="fused_names" version="0" value="batch_norm_30.b_0, batch_norm_30.tmp_3, batch_norm_30.w_0, batch_norm_30.w_1, batch_norm_30.w_2"/>
			</rt_info>
			<input>
				<port id="0" precision="FP32">
					<dim>-1</dim>
					<dim>32</dim>
					<dim>16</dim>
					<dim>-1</dim>
				</port>
				<port id="1" precision="FP32">
					<dim>1</dim>
					<dim>32</dim>
					<dim>1</dim>
					<dim>1</dim>
				</port>
			</input>
			<output>
				<port id="2" precision="FP32" names="batch_norm_30.tmp_3">
					<dim>-1</dim>
					<dim>32</dim>
					<dim>16</dim>
					<dim>-1</dim>
				</port>
			</output>
		</layer>
		<layer id="20" name="HSwish_5189" type="HSwish" version="opset4">
			<rt_info>
				<attribute name="fused_names" version="0" value="Add_3, Clip_3, Mul_3"/>
			</rt_info>
			<input>
				<port id="0" precision="FP32">
					<dim>-1</dim>
					<dim>32</dim>
					<dim>16</dim>
					<dim>-1</dim>
				</port>
			</input>
			<output>
				<port id="1" precision="FP32">
					<dim>-1</dim>
					<dim>32</dim>
					<dim>16</dim>
					<dim>-1</dim>
				</port>
			</output>
		</layer>
		<layer id="21" name="Multiply_10089" type="Const" version="opset1">
			<data element_type="f32" shape="64, 32, 1, 1" offset="5888" size="8192"/>
			<output>
				<port id="0" precision="FP32">
					<dim>64</dim>
					<dim>32</dim>
					<dim>1</dim>
					<dim>1</dim>
				</port>
			</output>
		</layer>
		<layer id="22" name="Multiply_9759" type="Convolution" version="opset1">
			<data strides="1, 1" dilations="1, 1" pads_begin="0, 0" pads_end="0, 0" auto_pad="explicit"/>
			<rt_info>
				<attribute name="fused_names" version="0" value="Add_3, Clip_3, Constant_6, Mul_3, batch_norm_30.tmp_4, batch_norm_31.b_0, batch_norm_31.tmp_3, batch_norm_31.w_0, batch_norm_31.w_1, batch_norm_31.w_2, conv2d_41.w_0, conv2d_99.tmp_0"/>
			</rt_info>
			<input>
				<port id="0" precision="FP32">
					<dim>-1</dim>
					<dim>32</dim>
					<dim>16</dim>
					<dim>-1</dim>
				</port>
				<port id="1" precision="FP32">
					<dim>64</dim>
					<dim>32</dim>
					<dim>1</dim>
					<dim>1</dim>
				</port>
			</input>
			<output>
				<port id="2" precision="FP32">
					<dim>-1</dim>
					<dim>64</dim>
					<dim>16</dim>
					<dim>-1</dim>
				</port>
			</output>
		</layer>
		<layer id="23" name="Constant_9764" type="Const" version="opset1">
			<data element_type="f32" shape="1, 64, 1, 1" offset="14080" size="256"/>
			<output>
				<port id="0" precision="FP32">
					<dim>1</dim>
					<dim>64</dim>
					<dim>1</dim>
					<dim>1</dim>
				</port>
			</output>
		</layer>
		<layer id="24" name="batch_norm_31.tmp_3" type="Add" version="opset1">
			<data auto_broadcast="numpy"/>
			<rt_info>
				<attribute name="fused_names" version="0" value="batch_norm_31.b_0, batch_norm_31.tmp_3, batch_norm_31.w_0, batch_norm_31.w_1, batch_norm_31.w_2"/>
			</rt_info>
			<input>
				<port id="0" precision="FP32">
					<dim>-1</dim>
					<dim>64</dim>
					<dim>16</dim>
					<dim>-1</dim>
				</port>
				<port id="1" precision="FP32">
					<dim>1</dim>
					<dim>64</dim>
					<dim>1</dim>
					<dim>1</dim>
				</port>
			</input>
			<output>
				<port id="2" precision="FP32" names="batch_norm_31.tmp_3">
					<dim>-1</dim>
					<dim>64</dim>
					<dim>16</dim>
					<dim>-1</dim>
				</port>
			</output>
		</layer>
		<layer id="25" name="HSwish_5192" type="HSwish" version="opset4">
			<rt_info>
				<attribute name="fused_names" version="0" value="Add_4, Clip_4, Mul_4"/>
			</rt_info>
			<input>
				<port id="0" precision="FP32">
					<dim>-1</dim>
					<dim>64</dim>
					<dim>16</dim>
					<dim>-1</dim>
				</port>
			</input>
			<output>
				<port id="1" precision="FP32">
					<dim>-1</dim>
					<dim>64</dim>
					<dim>16</dim>
					<dim>-1</dim>
				</port>
			</output>
		</layer>
		<layer id="26" name="Multiply_10104" type="Const" version="opset1">
			<data element_type="f32" shape="64, 1, 1, 3, 3" offset="14336" size="2304"/>
			<output>
				<port id="0" precision="FP32">
					<dim>64</dim>
					<dim>1</dim>
					<dim>1</dim>
					<dim>3</dim>
					<dim>3</dim>
				</port>
			</output>
		</layer>
		<layer id="27" name="Multiply_9769" type="GroupConvolution" version="opset1">
			<data strides="1, 1" pads_begin="1, 1" pads_end="1, 1" dilations="1, 1" auto_pad="explicit"/>
			<rt_info>
				<attribute name="fused_names" version="0" value="batch_norm_32.b_0, batch_norm_32.tmp_3, batch_norm_32.w_0, batch_norm_32.w_1, batch_norm_32.w_2"/>
			</rt_info>
			<input>
				<port id="0" precision="FP32">
					<dim>-1</dim>
					<dim>64</dim>
					<dim>16</dim>
					<dim>-1</dim>
				</port>
				<port id="1" precision="FP32">
					<dim>64</dim>
					<dim>1</dim>
					<dim>1</dim>
					<dim>3</dim>
					<dim>3</dim>
				</port>
			</input>
			<output>
				<port id="2" precision="FP32" names="depthwise_conv2d_15.tmp_0">
					<dim>-1</dim>
					<dim>64</dim>
					<dim>16</dim>
					<dim>-1</dim>
				</port>
			</output>
		</layer>
		<layer id="28" name="Constant_9774" type="Const" version="opset1">
			<data element_type="f32" shape="1, 64, 1, 1" offset="16640" size="256"/>
			<output>
				<port id="0" precision="FP32">
					<dim>1</dim>
					<dim>64</dim>
					<dim>1</dim>
					<dim>1</dim>
				</port>
			</output>
		</layer>
		<layer id="29" name="batch_norm_32.tmp_3" type="Add" version="opset1">
			<data auto_broadcast="numpy"/>
			<rt_info>
				<attribute name="fused_names" version="0" value="batch_norm_32.b_0, batch_norm_32.tmp_3, batch_norm_32.w_0, batch_norm_32.w_1, batch_norm_32.w_2"/>
			</rt_info>
			<input>
				<port id="0" precision="FP32">
					<dim>-1</dim>
					<dim>64</dim>
					<dim>16</dim>
					<dim>-1</dim>
				</port>
				<port id="1" precision="FP32">
					<dim>1</dim>
					<dim>64</dim>
					<dim>1</dim>
					<dim>1</dim>
				</port>
			</input>
			<output>
				<port id="2" precision="FP32" names="batch_norm_32.tmp_3">
					<dim>-1</dim>
					<dim>64</dim>
					<dim>16</dim>
					<dim>-1</dim>
				</port>
			</output>
		</layer>
		<layer id="30" name="HSwish_5195" type="HSwish" version="opset4">
			<rt_info>
				<attribute name="fused_names" version="0" value="Add_5, Clip_5, Mul_5"/>
			</rt_info>
			<input>
				<port id="0" precision="FP32">
					<dim>-1</dim>
					<dim>64</dim>
					<dim>16</dim>
					<dim>-1</dim>
				</port>
			</input>
			<output>
				<port id="1" precision="FP32">
					<dim>-1</dim>
					<dim>64</dim>
					<dim>16</dim>
					<dim>-1</dim>
				</port>
			</output>
		</layer>
		<layer id="31" name="Multiply_10118" type="Const" version="opset1">
			<data element_type="f32" shape="64, 64, 1, 1" offset="16896" size="16384"/>
			<output>
				<port id="0" precision="FP32">
					<dim>64</dim>
					<dim>64</dim>
					<dim>1</dim>
					<dim>1</dim>
				</port>
			</output>
		</layer>
		<layer id="32" name="Multiply_9779" type="Convolution" version="opset1">
			<data strides="1, 1" dilations="1, 1" pads_begin="0, 0" pads_end="0, 0" auto_pad="explicit"/>
			<rt_info>
				<attribute name="fused_names" version="0" value="Add_5, Clip_5, Constant_10, Mul_5, batch_norm_32.tmp_4, batch_norm_33.b_0, batch_norm_33.tmp_3, batch_norm_33.w_0, batch_norm_33.w_1, batch_norm_33.w_2, conv2d_100.tmp_0, conv2d_43.w_0"/>
			</rt_info>
			<input>
				<port id="0" precision="FP32">
					<dim>-1</dim>
					<dim>64</dim>
					<dim>16</dim>
					<dim>-1</dim>
				</port>
				<port id="1" precision="FP32">
					<dim>64</dim>
					<dim>64</dim>
					<dim>1</dim>
					<dim>1</dim>
				</port>
			</input>
			<output>
				<port id="2" precision="FP32">
					<dim>-1</dim>
					<dim>64</dim>
					<dim>16</dim>
					<dim>-1</dim>
				</port>
			</output>
		</layer>
		<layer id="33" name="Constant_9784" type="Const" version="opset1">
			<data element_type="f32" shape="1, 64, 1, 1" offset="33280" size="256"/>
			<output>
				<port id="0" precision="FP32">
					<dim>1</dim>
					<dim>64</dim>
					<dim>1</dim>
					<dim>1</dim>
				</port>
			</output>
		</layer>
		<layer id="34" name="batch_norm_33.tmp_3" type="Add" version="opset1">
			<data auto_broadcast="numpy"/>
			<rt_info>
				<attribute name="fused_names" version="0" value="batch_norm_33.b_0, batch_norm_33.tmp_3, batch_norm_33.w_0, batch_norm_33.w_1, batch_norm_33.w_2"/>
			</rt_info>
			<input>
				<port id="0" precision="FP32">
					<dim>-1</dim>
					<dim>64</dim>
					<dim>16</dim>
					<dim>-1</dim>
				</port>
				<port id="1" precision="FP32">
					<dim>1</dim>
					<dim>64</dim>
					<dim>1</dim>
					<dim>1</dim>
				</port>
			</input>
			<output>
				<port id="2" precision="FP32" names="batch_norm_33.tmp_3">
					<dim>-1</dim>
					<dim>64</dim>
					<dim>16</dim>
					<dim>-1</dim>
				</port>
			</output>
		</layer>
		<layer id="35" name="HSwish_5198" type="HSwish" version="opset4">
			<rt_info>
				<attribute name="fused_names" version="0" value="Add_6, Clip_6, Mul_6"/>
			</rt_info>
			<input>
				<port id="0" precision="FP32">
					<dim>-1</dim>
					<dim>64</dim>
					<dim>16</dim>
					<dim>-1</dim>
				</port>
			</input>
			<output>
				<port id="1" precision="FP32">
					<dim>-1</dim>
					<dim>64</dim>
					<dim>16</dim>
					<dim>-1</dim>
				</port>
			</output>
		</layer>
		<layer id="36" name="Multiply_10133" type="Const" version="opset1">
			<data element_type="f32" shape="64, 1, 1, 3, 3" offset="33536" size="2304"/>
			<output>
				<port id="0" precision="FP32">
					<dim>64</dim>
					<dim>1</dim>
					<dim>1</dim>
					<dim>3</dim>
					<dim>3</dim>
				</port>
			</output>
		</layer>
		<layer id="37" name="Multiply_9789" type="GroupConvolution" version="opset1">
			<data strides="2, 1" pads_begin="1, 1" pads_end="1, 1" dilations="1, 1" auto_pad="explicit"/>
			<rt_info>
				<attribute name="fused_names" version="0" value="batch_norm_34.b_0, batch_norm_34.tmp_3, batch_norm_34.w_0, batch_norm_34.w_1, batch_norm_34.w_2"/>
			</rt_info>
			<input>
				<port id="0" precision="FP32">
					<dim>-1</dim>
					<dim>64</dim>
					<dim>16</dim>
					<dim>-1</dim>
				</port>
				<port id="1" precision="FP32">
					<dim>64</dim>
					<dim>1</dim>
					<dim>1</dim>
					<dim>3</dim>
					<dim>3</dim>
				</port>
			</input>
			<output>
				<port id="2" precision="FP32" names="depthwise_conv2d_16.tmp_0">
					<dim>-1</dim>
					<dim>64</dim>
					<dim>8</dim>
					<dim>-1</dim>
				</port>
			</output>
		</layer>
		<layer id="38" name="Constant_9794" type="Const" version="opset1">
			<data element_type="f32" shape="1, 64, 1, 1" offset="35840" size="256"/>
			<output>
				<port id="0" precision="FP32">
					<dim>1</dim>
					<dim>64</dim>
					<dim>1</dim>
					<dim>1</dim>
				</port>
			</output>
		</layer>
		<layer id="39" name="batch_norm_34.tmp_3" type="Add" version="opset1">
			<data auto_broadcast="numpy"/>
			<rt_info>
				<attribute name="fused_names" version="0" value="batch_norm_34.b_0, batch_norm_34.tmp_3, batch_norm_34.w_0, batch_norm_34.w_1, batch_norm_34.w_2"/>
			</rt_info>
			<input>
				<port id="0" precision="FP32">
					<dim>-1</dim>
					<dim>64</dim>
					<dim>8</dim>
					<dim>-1</dim>
				</port>
				<port id="1" precision="FP32">
					<dim>1</dim>
					<dim>64</dim>
					<dim>1</dim>
					<dim>1</dim>
				</port>
			</input>
			<output>
				<port id="2" precision="FP32" names="batch_norm_34.tmp_3">
					<dim>-1</dim>
					<dim>64</dim>
					<dim>8</dim>
					<dim>-1</dim>
				</port>
			</output>
		</layer>
		<layer id="40" name="HSwish_5201" type="HSwish" version="opset4">
			<rt_info>
				<attribute name="fused_names" version="0" value="Add_7, Clip_7, Mul_7"/>
			</rt_info>
			<input>
				<port id="0" precision="FP32">
					<dim>-1</dim>
					<dim>64</dim>
					<dim>8</dim>
					<dim>-1</dim>
				</port>
			</input>
			<output>
				<port id="1" precision="FP32">
					<dim>-1</dim>
					<dim>64</dim>
					<dim>8</dim>
					<dim>-1</dim>
				</port>
			</output>
		</layer>
		<layer id="41" name="Multiply_10147" type="Const" version="opset1">
			<data element_type="f32" shape="128, 64, 1, 1" offset="36096" size="32768"/>
			<output>
				<port id="0" precision="FP32">
					<dim>128</dim>
					<dim>64</dim>
					<dim>1</dim>
					<dim>1</dim>
				</port>
			</output>
		</layer>
		<layer id="42" name="Multiply_9799" type="Convolution" version="opset1">
			<data strides="1, 1" dilations="1, 1" pads_begin="0, 0" pads_end="0, 0" auto_pad="explicit"/>
			<rt_info>
				<attribute name="fused_names" version="0" value="Add_7, Clip_7, Constant_14, Mul_7, batch_norm_34.tmp_4, batch_norm_35.b_0, batch_norm_35.tmp_3, batch_norm_35.w_0, batch_norm_35.w_1, batch_norm_35.w_2, conv2d_101.tmp_0, conv2d_45.w_0"/>
			</rt_info>
			<input>
				<port id="0" precision="FP32">
					<dim>-1</dim>
					<dim>64</dim>
					<dim>8</dim>
					<dim>-1</dim>
				</port>
				<port id="1" precision="FP32">
					<dim>128</dim>
					<dim>64</dim>
					<dim>1</dim>
					<dim>1</dim>
				</port>
			</input>
			<output>
				<port id="2" precision="FP32">
					<dim>-1</dim>
					<dim>128</dim>
					<dim>8</dim>
					<dim>-1</dim>
				</port>
			</output>
		</layer>
		<layer id="43" name="Constant_9804" type="Const" version="opset1">
			<data element_type="f32" shape="1, 128, 1, 1" offset="68864" size="512"/>
			<output>
				<port id="0" precision="FP32">
					<dim>1</dim>
					<dim>128</dim>
					<dim>1</dim>
					<dim>1</dim>
				</port>
			</output>
		</layer>
		<layer id="44" name="batch_norm_35.tmp_3" type="Add" version="opset1">
			<data auto_broadcast="numpy"/>
			<rt_info>
				<attribute name="fused_names" version="0" value="batch_norm_35.b_0, batch_norm_35.tmp_3, batch_norm_35.w_0, batch_norm_35.w_1, batch_norm_35.w_2"/>
			</rt_info>
			<input>
				<port id="0" precision="FP32">
					<dim>-1</dim>
					<dim>128</dim>
					<dim>8</dim>
					<dim>-1</dim>
				</port>
				<port id="1" precision="FP32">
					<dim>1</dim>
					<dim>128</dim>
					<dim>1</dim>
					<dim>1</dim>
				</port>
			</input>
			<output>
				<port id="2" precision="FP32" names="batch_norm_35.tmp_3">
					<dim>-1</dim>
					<dim>128</dim>
					<dim>8</dim>
					<dim>-1</dim>
				</port>
			</output>
		</layer>
		<layer id="45" name="HSwish_5204" type="HSwish" version="opset4">
			<rt_info>
				<attribute name="fused_names" version="0" value="Add_8, Clip_8, Mul_8"/>
			</rt_info>
			<input>
				<port id="0" precision="FP32">
					<dim>-1</dim>
					<dim>128</dim>
					<dim>8</dim>
					<dim>-1</dim>
				</port>
			</input>
			<output>
				<port id="1" precision="FP32">
					<dim>-1</dim>
					<dim>128</dim>
					<dim>8</dim>
					<dim>-1</dim>
				</port>
			</output>
		</layer>
		<layer id="46" name="Multiply_10162" type="Const" version="opset1">
			<data element_type="f32" shape="128, 1, 1, 3, 3" offset="69376" size="4608"/>
			<output>
				<port id="0" precision="FP32">
					<dim>128</dim>
					<dim>1</dim>
					<dim>1</dim>
					<dim>3</dim>
					<dim>3</dim>
				</port>
			</output>
		</layer>
		<layer id="47" name="Multiply_9809" type="GroupConvolution" version="opset1">
			<data strides="1, 1" pads_begin="1, 1" pads_end="1, 1" dilations="1, 1" auto_pad="explicit"/>
			<rt_info>
				<attribute name="fused_names" version="0" value="batch_norm_36.b_0, batch_norm_36.tmp_3, batch_norm_36.w_0, batch_norm_36.w_1, batch_norm_36.w_2"/>
			</rt_info>
			<input>
				<port id="0" precision="FP32">
					<dim>-1</dim>
					<dim>128</dim>
					<dim>8</dim>
					<dim>-1</dim>
				</port>
				<port id="1" precision="FP32">
					<dim>128</dim>
					<dim>1</dim>
					<dim>1</dim>
					<dim>3</dim>
					<dim>3</dim>
				</port>
			</input>
			<output>
				<port id="2" precision="FP32" names="depthwise_conv2d_17.tmp_0">
					<dim>-1</dim>
					<dim>128</dim>
					<dim>8</dim>
					<dim>-1</dim>
				</port>
			</output>
		</layer>
		<layer id="48" name="Constant_9814" type="Const" version="opset1">
			<data element_type="f32" shape="1, 128, 1, 1" offset="73984" size="512"/>
			<output>
				<port id="0" precision="FP32">
					<dim>1</dim>
					<dim>128</dim>
					<dim>1</dim>
					<dim>1</dim>
				</port>
			</output>
		</layer>
		<layer id="49" name="batch_norm_36.tmp_3" type="Add" version="opset1">
			<data auto_broadcast="numpy"/>
			<rt_info>
				<attribute name="fused_names" version="0" value="batch_norm_36.b_0, batch_norm_36.tmp_3, batch_norm_36.w_0, batch_norm_36.w_1, batch_norm_36.w_2"/>
			</rt_info>
			<input>
				<port id="0" precision="FP32">
					<dim>-1</dim>
					<dim>128</dim>
					<dim>8</dim>
					<dim>-1</dim>
				</port>
				<port id="1" precision="FP32">
					<dim>1</dim>
					<dim>128</dim>
					<dim>1</dim>
					<dim>1</dim>
				</port>
			</input>
			<output>
				<port id="2" precision="FP32" names="batch_norm_36.tmp_3">
					<dim>-1</dim>
					<dim>128</dim>
					<dim>8</dim>
					<dim>-1</dim>
				</port>
			</output>
		</layer>
		<layer id="50" name="HSwish_5207" type="HSwish" version="opset4">
			<rt_info>
				<attribute name="fused_names" version="0" value="Add_9, Clip_9, Mul_9"/>
			</rt_info>
			<input>
				<port id="0" precision="FP32">
					<dim>-1</dim>
					<dim>128</dim>
					<dim>8</dim>
					<dim>-1</dim>
				</port>
			</input>
			<output>
				<port id="1" precision="FP32">
					<dim>-1</dim>
					<dim>128</dim>
					<dim>8</dim>
					<dim>-1</dim>
				</port>
			</output>
		</layer>
		<layer id="51" name="Multiply_10176" type="Const" version="opset1">
			<data element_type="f32" shape="128, 128, 1, 1" offset="74496" size="65536"/>
			<output>
				<port id="0" precision="FP32">
					<dim>128</dim>
					<dim>128</dim>
					<dim>1</dim>
					<dim>1</dim>
				</port>
			</output>
		</layer>
		<layer id="52" name="Multiply_9819" type="Convolution" version="opset1">
			<data strides="1, 1" dilations="1, 1" pads_begin="0, 0" pads_end="0, 0" auto_pad="explicit"/>
			<rt_info>
				<attribute name="fused_names" version="0" value="Add_9, Clip_9, Constant_18, Mul_9, batch_norm_36.tmp_4, batch_norm_37.b_0, batch_norm_37.tmp_3, batch_norm_37.w_0, batch_norm_37.w_1, batch_norm_37.w_2, conv2d_102.tmp_0, conv2d_47.w_0"/>
			</rt_info>
			<input>
				<port id="0" precision="FP32">
					<dim>-1</dim>
					<dim>128</dim>
					<dim>8</dim>
					<dim>-1</dim>
				</port>
				<port id="1" precision="FP32">
					<dim>128</dim>
					<dim>128</dim>
					<dim>1</dim>
					<dim>1</dim>
				</port>
			</input>
			<output>
				<port id="2" precision="FP32">
					<dim>-1</dim>
					<dim>128</dim>
					<dim>8</dim>
					<dim>-1</dim>
				</port>
			</output>
		</layer>
		<layer id="53" name="Constant_9824" type="Const" version="opset1">
			<data element_type="f32" shape="1, 128, 1, 1" offset="140032" size="512"/>
			<output>
				<port id="0" precision="FP32">
					<dim>1</dim>
					<dim>128</dim>
					<dim>1</dim>
					<dim>1</dim>
				</port>
			</output>
		</layer>
		<layer id="54" name="batch_norm_37.tmp_3" type="Add" version="opset1">
			<data auto_broadcast="numpy"/>
			<rt_info>
				<attribute name="fused_names" version="0" value="batch_norm_37.b_0, batch_norm_37.tmp_3, batch_norm_37.w_0, batch_norm_37.w_1, batch_norm_37.w_2"/>
			</rt_info>
			<input>
				<port id="0" precision="FP32">
					<dim>-1</dim>
					<dim>128</dim>
					<dim>8</dim>
					<dim>-1</dim>
				</port>
				<port id="1" precision="FP32">
					<dim>1</dim>
					<dim>128</dim>
					<dim>1</dim>
					<dim>1</dim>
				</port>
			</input>
			<output>
				<port id="2" precision="FP32" names="batch_norm_37.tmp_3">
					<dim>-1</dim>
					<dim>128</dim>
					<dim>8</dim>
					<dim>-1</dim>
				</port>
			</output>
		</layer>
		<layer id="55" name="HSwish_5210" type="HSwish" version="opset4">
			<rt_info>
				<attribute name="fused_names" version="0" value="Add_10, Clip_10, Mul_10"/>
			</rt_info>
			<input>
				<port id="0" precision="FP32">
					<dim>-1</dim>
					<dim>128</dim>
					<dim>8</dim>
					<dim>-1</dim>
				</port>
			</input>
			<output>
				<port id="1" precision="FP32">
					<dim>-1</dim>
					<dim>128</dim>
					<dim>8</dim>
					<dim>-1</dim>
				</port>
			</output>
		</layer>
		<layer id="56" name="Multiply_10191" type="Const" version="opset1">
			<data element_type="f32" shape="128, 1, 1, 3, 3" offset="140544" size="4608"/>
			<output>
				<port id="0" precision="FP32">
					<dim>128</dim>
					<dim>1</dim>
					<dim>1</dim>
					<dim>3</dim>
					<dim>3</dim>
				</port>
			</output>
		</layer>
		<layer id="57" name="Multiply_9829" type="GroupConvolution" version="opset1">
			<data strides="2, 1" pads_begin="1, 1" pads_end="1, 1" dilations="1, 1" auto_pad="explicit"/>
			<rt_info>
				<attribute name="fused_names" version="0" value="batch_norm_38.b_0, batch_norm_38.tmp_3, batch_norm_38.w_0, batch_norm_38.w_1, batch_norm_38.w_2"/>
			</rt_info>
			<input>
				<port id="0" precision="FP32">
					<dim>-1</dim>
					<dim>128</dim>
					<dim>8</dim>
					<dim>-1</dim>
				</port>
				<port id="1" precision="FP32">
					<dim>128</dim>
					<dim>1</dim>
					<dim>1</dim>
					<dim>3</dim>
					<dim>3</dim>
				</port>
			</input>
			<output>
				<port id="2" precision="FP32" names="depthwise_conv2d_18.tmp_0">
					<dim>-1</dim>
					<dim>128</dim>
					<dim>4</dim>
					<dim>-1</dim>
				</port>
			</output>
		</layer>
		<layer id="58" name="Constant_9834" type="Const" version="opset1">
			<data element_type="f32" shape="1, 128, 1, 1" offset="145152" size="512"/>
			<output>
				<port id="0" precision="FP32">
					<dim>1</dim>
					<dim>128</dim>
					<dim>1</dim>
					<dim>1</dim>
				</port>
			</output>
		</layer>
		<layer id="59" name="batch_norm_38.tmp_3" type="Add" version="opset1">
			<data auto_broadcast="numpy"/>
			<rt_info>
				<attribute name="fused_names" version="0" value="batch_norm_38.b_0, batch_norm_38.tmp_3, batch_norm_38.w_0, batch_norm_38.w_1, batch_norm_38.w_2"/>
			</rt_info>
			<input>
				<port id="0" precision="FP32">
					<dim>-1</dim>
					<dim>128</dim>
					<dim>4</dim>
					<dim>-1</dim>
				</port>
				<port id="1" precision="FP32">
					<dim>1</dim>
					<dim>128</dim>
					<dim>1</dim>
					<dim>1</dim>
				</port>
			</input>
			<output>
				<port id="2" precision="FP32" names="batch_norm_38.tmp_3">
					<dim>-1</dim>
					<dim>128</dim>
					<dim>4</dim>
					<dim>-1</dim>
				</port>
			</output>
		</layer>
		<layer id="60" name="HSwish_5213" type="HSwish" version="opset4">
			<rt_info>
				<attribute name="fused_names" version="0" value="Add_11, Clip_11, Mul_11"/>
			</rt_info>
			<input>
				<port id="0" precision="FP32">
					<dim>-1</dim>
					<dim>128</dim>
					<dim>4</dim>
					<dim>-1</dim>
				</port>
			</input>
			<output>
				<port id="1" precision="FP32">
					<dim>-1</dim>
					<dim>128</dim>
					<dim>4</dim>
					<dim>-1</dim>
				</port>
			</output>
		</layer>
		<layer id="61" name="Multiply_10205" type="Const" version="opset1">
			<data element_type="f32" shape="256, 128, 1, 1" offset="145664" size="131072"/>
			<output>
				<port id="0" precision="FP32">
					<dim>256</dim>
					<dim>128</dim>
					<dim>1</dim>
					<dim>1</dim>
				</port>
			</output>
		</layer>
		<layer id="62" name="Multiply_9839" type="Convolution" version="opset1">
			<data strides="1, 1" dilations="1, 1" pads_begin="0, 0" pads_end="0, 0" auto_pad="explicit"/>
			<rt_info>
				<attribute name="fused_names" version="0" value="Add_11, Clip_11, Constant_22, Mul_11, batch_norm_38.tmp_4, batch_norm_39.b_0, batch_norm_39.tmp_3, batch_norm_39.w_0, batch_norm_39.w_1, batch_norm_39.w_2, conv2d_103.tmp_0, conv2d_49.w_0"/>
			</rt_info>
			<input>
				<port id="0" precision="FP32">
					<dim>-1</dim>
					<dim>128</dim>
					<dim>4</dim>
					<dim>-1</dim>
				</port>
				<port id="1" precision="FP32">
					<dim>256</dim>
					<dim>128</dim>
					<dim>1</dim>
					<dim>1</dim>
				</port>
			</input>
			<output>
				<port id="2" precision="FP32">
					<dim>-1</dim>
					<dim>256</dim>
					<dim>4</dim>
					<dim>-1</dim>
				</port>
			</output>
		</layer>
		<layer id="63" name="Constant_9844" type="Const" version="opset1">
			<data element_type="f32" shape="1, 256, 1, 1" offset="276736" size="1024"/>
			<output>
				<port id="0" precision="FP32">
					<dim>1</dim>
					<dim>256</dim>
					<dim>1</dim>
					<dim>1</dim>
				</port>
			</output>
		</layer>
		<layer id="64" name="batch_norm_39.tmp_3" type="Add" version="opset1">
			<data auto_broadcast="numpy"/>
			<rt_info>
				<attribute name="fused_names" version="0" value="batch_norm_39.b_0, batch_norm_39.tmp_3, batch_norm_39.w_0, batch_norm_39.w_1, batch_norm_39.w_2"/>
			</rt_info>
			<input>
				<port id="0" precision="FP32">
					<dim>-1</dim>
					<dim>256</dim>
					<dim>4</dim>
					<dim>-1</dim>
				</port>
				<port id="1" precision="FP32">
					<dim>1</dim>
					<dim>256</dim>
					<dim>1</dim>
					<dim>1</dim>
				</port>
			</input>
			<output>
				<port id="2" precision="FP32" names="batch_norm_39.tmp_3">
					<dim>-1</dim>
					<dim>256</dim>
					<dim>4</dim>
					<dim>-1</dim>
				</port>
			</output>
		</layer>
		<layer id="65" name="HSwish_5216" type="HSwish" version="opset4">
			<rt_info>
				<attribute name="fused_names" version="0" value="Add_12, Clip_12, Mul_12"/>
			</rt_info>
			<input>
				<port id="0" precision="FP32">
					<dim>-1</dim>
					<dim>256</dim>
					<dim>4</dim>
					<dim>-1</dim>
				</port>
			</input>
			<output>
				<port id="1" precision="FP32">
					<dim>-1</dim>
					<dim>256</dim>
					<dim>4</dim>
					<dim>-1</dim>
				</port>
			</output>
		</layer>
		<layer id="66" name="Multiply_10220" type="Const" version="opset1">
			<data element_type="f32" shape="256, 1, 1, 5, 5" offset="277760" size="25600"/>
			<output>
				<port id="0" precision="FP32">
					<dim>256</dim>
					<dim>1</dim>
					<dim>1</dim>
					<dim>5</dim>
					<dim>5</dim>
				</port>
			</output>
		</layer>
		<layer id="67" name="Multiply_9849" type="GroupConvolution" version="opset1">
			<data strides="1, 1" pads_begin="2, 2" pads_end="2, 2" dilations="1, 1" auto_pad="explicit"/>
			<rt_info>
				<attribute name="fused_names" version="0" value="batch_norm_40.b_0, batch_norm_40.tmp_3, batch_norm_40.w_0, batch_norm_40.w_1, batch_norm_40.w_2"/>
			</rt_info>
			<input>
				<port id="0" precision="FP32">
					<dim>-1</dim>
					<dim>256</dim>
					<dim>4</dim>
					<dim>-1</dim>
				</port>
				<port id="1" precision="FP32">
					<dim>256</dim>
					<dim>1</dim>
					<dim>1</dim>
					<dim>5</dim>
					<dim>5</dim>
				</port>
			</input>
			<output>
				<port id="2" precision="FP32" names="depthwise_conv2d_19.tmp_0">
					<dim>-1</dim>
					<dim>256</dim>
					<dim>4</dim>
					<dim>-1</dim>
				</port>
			</output>
		</layer>
		<layer id="68" name="Constant_9854" type="Const" version="opset1">
			<data element_type="f32" shape="1, 256, 1, 1" offset="303360" size="1024"/>
			<output>
				<port id="0" precision="FP32">
					<dim>1</dim>
					<dim>256</dim>
					<dim>1</dim>
					<dim>1</dim>
				</port>
			</output>
		</layer>
		<layer id="69" name="batch_norm_40.tmp_3" type="Add" version="opset1">
			<data auto_broadcast="numpy"/>
			<rt_info>
				<attribute name="fused_names" version="0" value="batch_norm_40.b_0, batch_norm_40.tmp_3, batch_norm_40.w_0, batch_norm_40.w_1, batch_norm_40.w_2"/>
			</rt_info>
			<input>
				<port id="0" precision="FP32">
					<dim>-1</dim>
					<dim>256</dim>
					<dim>4</dim>
					<dim>-1</dim>
				</port>
				<port id="1" precision="FP32">
					<dim>1</dim>
					<dim>256</dim>
					<dim>1</dim>
					<dim>1</dim>
				</port>
			</input>
			<output>
				<port id="2" precision="FP32" names="batch_norm_40.tmp_3">
					<dim>-1</dim>
					<dim>256</dim>
					<dim>4</dim>
					<dim>-1</dim>
				</port>
			</output>
		</layer>
		<layer id="70" name="HSwish_5219" type="HSwish" version="opset4">
			<rt_info>
				<attribute name="fused_names" version="0" value="Add_13, Clip_13, Mul_13"/>
			</rt_info>
			<input>
				<port id="0" precision="FP32">
					<dim>-1</dim>
					<dim>256</dim>
					<dim>4</dim>
					<dim>-1</dim>
				</port>
			</input>
			<output>
				<port id="1" precision="FP32">
					<dim>-1</dim>
					<dim>256</dim>
					<dim>4</dim>
					<dim>-1</dim>
				</port>
			</output>
		</layer>
		<layer id="71" name="Multiply_10234" type="Const" version="opset1">
			<data element_type="f32" shape="256, 256, 1, 1" offset="304384" size="262144"/>
			<output>
				<port id="0" precision="FP32">
					<dim>256</dim>
					<dim>256</dim>
					<dim>1</dim>
					<dim>1</dim>
				</port>
			</output>
		</layer>
		<layer id="72" name="Multiply_9859" type="Convolution" version="opset1">
			<data strides="1, 1" dilations="1, 1" pads_begin="0, 0" pads_end="0, 0" auto_pad="explicit"/>
			<rt_info>
				<attribute name="fused_names" version="0" value="Add_13, Clip_13, Constant_26, Mul_13, batch_norm_40.tmp_4, batch_norm_41.b_0, batch_norm_41.tmp_3, batch_norm_41.w_0, batch_norm_41.w_1, batch_norm_41.w_2, conv2d_104.tmp_0, conv2d_51.w_0"/>
			</rt_info>
			<input>
				<port id="0" precision="FP32">
					<dim>-1</dim>
					<dim>256</dim>
					<dim>4</dim>
					<dim>-1</dim>
				</port>
				<port id="1" precision="FP32">
					<dim>256</dim>
					<dim>256</dim>
					<dim>1</dim>
					<dim>1</dim>
				</port>
			</input>
			<output>
				<port id="2" precision="FP32">
					<dim>-1</dim>
					<dim>256</dim>
					<dim>4</dim>
					<dim>-1</dim>
				</port>
			</output>
		</layer>
		<layer id="73" name="Constant_9864" type="Const" version="opset1">
			<data element_type="f32" shape="1, 256, 1, 1" offset="566528" size="1024"/>
			<output>
				<port id="0" precision="FP32">
					<dim>1</dim>
					<dim>256</dim>
					<dim>1</dim>
					<dim>1</dim>
				</port>
			</output>
		</layer>
		<layer id="74" name="batch_norm_41.tmp_3" type="Add" version="opset1">
			<data auto_broadcast="numpy"/>
			<rt_info>
				<attribute name="fused_names" version="0" value="batch_norm_41.b_0, batch_norm_41.tmp_3, batch_norm_41.w_0, batch_norm_41.w_1, batch_norm_41.w_2"/>
			</rt_info>
			<input>
				<port id="0" precision="FP32">
					<dim>-1</dim>
					<dim>256</dim>
					<dim>4</dim>
					<dim>-1</dim>
				</port>
				<port id="1" precision="FP32">
					<dim>1</dim>
					<dim>256</dim>
					<dim>1</dim>
					<dim>1</dim>
				</port>
			</input>
			<output>
				<port id="2" precision="FP32" names="batch_norm_41.tmp_3">
					<dim>-1</dim>
					<dim>256</dim>
					<dim>4</dim>
					<dim>-1</dim>
				</port>
			</output>
		</layer>
		<layer id="75" name="HSwish_5222" type="HSwish" version="opset4">
			<rt_info>
				<attribute name="fused_names" version="0" value="Add_14, Clip_14, Mul_14"/>
			</rt_info>
			<input>
				<port id="0" precision="FP32">
					<dim>-1</dim>
					<dim>256</dim>
					<dim>4</dim>
					<dim>-1</dim>
				</port>
			</input>
			<output>
				<port id="1" precision="FP32">
					<dim>-1</dim>
					<dim>256</dim>
					<dim>4</dim>
					<dim>-1</dim>
				</port>
			</output>
		</layer>
		<layer id="76" name="Multiply_10249" type="Const" version="opset1">
			<data element_type="f32" shape="256, 1, 1, 5, 5" offset="567552" size="25600"/>
			<output>
				<port id="0" precision="FP32">
					<dim>256</dim>
					<dim>1</dim>
					<dim>1</dim>
					<dim>5</dim>
					<dim>5</dim>
				</port>
			</output>
		</layer>
		<layer id="77" name="Multiply_9869" type="GroupConvolution" version="opset1">
			<data strides="1, 1" pads_begin="2, 2" pads_end="2, 2" dilations="1, 1" auto_pad="explicit"/>
			<rt_info>
				<attribute name="fused_names" version="0" value="batch_norm_42.b_0, batch_norm_42.tmp_3, batch_norm_42.w_0, batch_norm_42.w_1, batch_norm_42.w_2"/>
			</rt_info>
			<input>
				<port id="0" precision="FP32">
					<dim>-1</dim>
					<dim>256</dim>
					<dim>4</dim>
					<dim>-1</dim>
				</port>
				<port id="1" precision="FP32">
					<dim>256</dim>
					<dim>1</dim>
					<dim>1</dim>
					<dim>5</dim>
					<dim>5</dim>
				</port>
			</input>
			<output>
				<port id="2" precision="FP32" names="depthwise_conv2d_20.tmp_0">
					<dim>-1</dim>
					<dim>256</dim>
					<dim>4</dim>
					<dim>-1</dim>
				</port>
			</output>
		</layer>
		<layer id="78" name="Constant_9874" type="Const" version="opset1">
			<data element_type="f32" shape="1, 256, 1, 1" offset="593152" size="1024"/>
			<output>
				<port id="0" precision="FP32">
					<dim>1</dim>
					<dim>256</dim>
					<dim>1</dim>
					<dim>1</dim>
				</port>
			</output>
		</layer>
		<layer id="79" name="batch_norm_42.tmp_3" type="Add" version="opset1">
			<data auto_broadcast="numpy"/>
			<rt_info>
				<attribute name="fused_names" version="0" value="batch_norm_42.b_0, batch_norm_42.tmp_3, batch_norm_42.w_0, batch_norm_42.w_1, batch_norm_42.w_2"/>
			</rt_info>
			<input>
				<port id="0" precision="FP32">
					<dim>-1</dim>
					<dim>256</dim>
					<dim>4</dim>
					<dim>-1</dim>
				</port>
				<port id="1" precision="FP32">
					<dim>1</dim>
					<dim>256</dim>
					<dim>1</dim>
					<dim>1</dim>
				</port>
			</input>
			<output>
				<port id="2" precision="FP32" names="batch_norm_42.tmp_3">
					<dim>-1</dim>
					<dim>256</dim>
					<dim>4</dim>
					<dim>-1</dim>
				</port>
			</output>
		</layer>
		<layer id="80" name="HSwish_5225" type="HSwish" version="opset4">
			<rt_info>
				<attribute name="fused_names" version="0" value="Add_15, Clip_15, Mul_15"/>
			</rt_info>
			<input>
				<port id="0" precision="FP32">
					<dim>-1</dim>
					<dim>256</dim>
					<dim>4</dim>
					<dim>-1</dim>
				</port>
			</input>
			<output>
				<port id="1" precision="FP32">
					<dim>-1</dim>
					<dim>256</dim>
					<dim>4</dim>
					<dim>-1</dim>
				</port>
			</output>
		</layer>
		<layer id="81" name="Multiply_10263" type="Const" version="opset1">
			<data element_type="f32" shape="256, 256, 1, 1" offset="594176" size="262144"/>
			<output>
				<port id="0" precision="FP32">
					<dim>256</dim>
					<dim>256</dim>
					<dim>1</dim>
					<dim>1</dim>
				</port>
			</output>
		</layer>
		<layer id="82" name="Multiply_9879" type="Convolution" version="opset1">
			<data strides="1, 1" dilations="1, 1" pads_begin="0, 0" pads_end="0, 0" auto_pad="explicit"/>
			<rt_info>
				<attribute name="fused_names" version="0" value="Add_15, Clip_15, Constant_30, Mul_15, batch_norm_42.tmp_4, batch_norm_43.b_0, batch_norm_43.tmp_3, batch_norm_43.w_0, batch_norm_43.w_1, batch_norm_43.w_2, conv2d_105.tmp_0, conv2d_53.w_0"/>
			</rt_info>
			<input>
				<port id="0" precision="FP32">
					<dim>-1</dim>
					<dim>256</dim>
					<dim>4</dim>
					<dim>-1</dim>
				</port>
				<port id="1" precision="FP32">
					<dim>256</dim>
					<dim>256</dim>
					<dim>1</dim>
					<dim>1</dim>
				</port>
			</input>
			<output>
				<port id="2" precision="FP32">
					<dim>-1</dim>
					<dim>256</dim>
					<dim>4</dim>
					<dim>-1</dim>
				</port>
			</output>
		</layer>
		<layer id="83" name="Constant_9884" type="Const" version="opset1">
			<data element_type="f32" shape="1, 256, 1, 1" offset="856320" size="1024"/>
			<output>
				<port id="0" precision="FP32">
					<dim>1</dim>
					<dim>256</dim>
					<dim>1</dim>
					<dim>1</dim>
				</port>
			</output>
		</layer>
		<layer id="84" name="batch_norm_43.tmp_3" type="Add" version="opset1">
			<data auto_broadcast="numpy"/>
			<rt_info>
				<attribute name="fused_names" version="0" value="batch_norm_43.b_0, batch_norm_43.tmp_3, batch_norm_43.w_0, batch_norm_43.w_1, batch_norm_43.w_2"/>
			</rt_info>
			<input>
				<port id="0" precision="FP32">
					<dim>-1</dim>
					<dim>256</dim>
					<dim>4</dim>
					<dim>-1</dim>
				</port>
				<port id="1" precision="FP32">
					<dim>1</dim>
					<dim>256</dim>
					<dim>1</dim>
					<dim>1</dim>
				</port>
			</input>
			<output>
				<port id="2" precision="FP32" names="batch_norm_43.tmp_3">
					<dim>-1</dim>
					<dim>256</dim>
					<dim>4</dim>
					<dim>-1</dim>
				</port>
			</output>
		</layer>
		<layer id="85" name="HSwish_5228" type="HSwish" version="opset4">
			<rt_info>
				<attribute name="fused_names" version="0" value="Add_16, Clip_16, Mul_16"/>
			</rt_info>
			<input>
				<port id="0" precision="FP32">
					<dim>-1</dim>
					<dim>256</dim>
					<dim>4</dim>
					<dim>-1</dim>
				</port>
			</input>
			<output>
				<port id="1" precision="FP32">
					<dim>-1</dim>
					<dim>256</dim>
					<dim>4</dim>
					<dim>-1</dim>
				</port>
			</output>
		</layer>
		<layer id="86" name="Multiply_10278" type="Const" version="opset1">
			<data element_type="f32" shape="256, 1, 1, 5, 5" offset="857344" size="25600"/>
			<output>
				<port id="0" precision="FP32">
					<dim>256</dim>
					<dim>1</dim>
					<dim>1</dim>
					<dim>5</dim>
					<dim>5</dim>
				</port>
			</output>
		</layer>
		<layer id="87" name="Multiply_9889" type="GroupConvolution" version="opset1">
			<data strides="1, 1" pads_begin="2, 2" pads_end="2, 2" dilations="1, 1" auto_pad="explicit"/>
			<rt_info>
				<attribute name="fused_names" version="0" value="batch_norm_44.b_0, batch_norm_44.tmp_3, batch_norm_44.w_0, batch_norm_44.w_1, batch_norm_44.w_2"/>
			</rt_info>
			<input>
				<port id="0" precision="FP32">
					<dim>-1</dim>
					<dim>256</dim>
					<dim>4</dim>
					<dim>-1</dim>
				</port>
				<port id="1" precision="FP32">
					<dim>256</dim>
					<dim>1</dim>
					<dim>1</dim>
					<dim>5</dim>
					<dim>5</dim>
				</port>
			</input>
			<output>
				<port id="2" precision="FP32" names="depthwise_conv2d_21.tmp_0">
					<dim>-1</dim>
					<dim>256</dim>
					<dim>4</dim>
					<dim>-1</dim>
				</port>
			</output>
		</layer>
		<layer id="88" name="Constant_9894" type="Const" version="opset1">
			<data element_type="f32" shape="1, 256, 1, 1" offset="882944" size="1024"/>
			<output>
				<port id="0" precision="FP32">
					<dim>1</dim>
					<dim>256</dim>
					<dim>1</dim>
					<dim>1</dim>
				</port>
			</output>
		</layer>
		<layer id="89" name="batch_norm_44.tmp_3" type="Add" version="opset1">
			<data auto_broadcast="numpy"/>
			<rt_info>
				<attribute name="fused_names" version="0" value="batch_norm_44.b_0, batch_norm_44.tmp_3, batch_norm_44.w_0, batch_norm_44.w_1, batch_norm_44.w_2"/>
			</rt_info>
			<input>
				<port id="0" precision="FP32">
					<dim>-1</dim>
					<dim>256</dim>
					<dim>4</dim>
					<dim>-1</dim>
				</port>
				<port id="1" precision="FP32">
					<dim>1</dim>
					<dim>256</dim>
					<dim>1</dim>
					<dim>1</dim>
				</port>
			</input>
			<output>
				<port id="2" precision="FP32" names="batch_norm_44.tmp_3">
					<dim>-1</dim>
					<dim>256</dim>
					<dim>4</dim>
					<dim>-1</dim>
				</port>
			</output>
		</layer>
		<layer id="90" name="HSwish_5231" type="HSwish" version="opset4">
			<rt_info>
				<attribute name="fused_names" version="0" value="Add_17, Clip_17, Mul_17"/>
			</rt_info>
			<input>
				<port id="0" precision="FP32">
					<dim>-1</dim>
					<dim>256</dim>
					<dim>4</dim>
					<dim>-1</dim>
				</port>
			</input>
			<output>
				<port id="1" precision="FP32">
					<dim>-1</dim>
					<dim>256</dim>
					<dim>4</dim>
					<dim>-1</dim>
				</port>
			</output>
		</layer>
		<layer id="91" name="Multiply_10292" type="Const" version="opset1">
			<data element_type="f32" shape="256, 256, 1, 1" offset="883968" size="262144"/>
			<output>
				<port id="0" precision="FP32">
					<dim>256</dim>
					<dim>256</dim>
					<dim>1</dim>
					<dim>1</dim>
				</port>
			</output>
		</layer>
		<layer id="92" name="Multiply_9899" type="Convolution" version="opset1">
			<data strides="1, 1" dilations="1, 1" pads_begin="0, 0" pads_end="0, 0" auto_pad="explicit"/>
			<rt_info>
				<attribute name="fused_names" version="0" value="Add_17, Clip_17, Constant_34, Mul_17, batch_norm_44.tmp_4, batch_norm_45.b_0, batch_norm_45.tmp_3, batch_norm_45.w_0, batch_norm_45.w_1, batch_norm_45.w_2, conv2d_106.tmp_0, conv2d_55.w_0"/>
			</rt_info>
			<input>
				<port id="0" precision="FP32">
					<dim>-1</dim>
					<dim>256</dim>
					<dim>4</dim>
					<dim>-1</dim>
				</port>
				<port id="1" precision="FP32">
					<dim>256</dim>
					<dim>256</dim>
					<dim>1</dim>
					<dim>1</dim>
				</port>
			</input>
			<output>
				<port id="2" precision="FP32">
					<dim>-1</dim>
					<dim>256</dim>
					<dim>4</dim>
					<dim>-1</dim>
				</port>
			</output>
		</layer>
		<layer id="93" name="Constant_9904" type="Const" version="opset1">
			<data element_type="f32" shape="1, 256, 1, 1" offset="1146112" size="1024"/>
			<output>
				<port id="0" precision="FP32">
					<dim>1</dim>
					<dim>256</dim>
					<dim>1</dim>
					<dim>1</dim>
				</port>
			</output>
		</layer>
		<layer id="94" name="batch_norm_45.tmp_3" type="Add" version="opset1">
			<data auto_broadcast="numpy"/>
			<rt_info>
				<attribute name="fused_names" version="0" value="batch_norm_45.b_0, batch_norm_45.tmp_3, batch_norm_45.w_0, batch_norm_45.w_1, batch_norm_45.w_2"/>
			</rt_info>
			<input>
				<port id="0" precision="FP32">
					<dim>-1</dim>
					<dim>256</dim>
					<dim>4</dim>
					<dim>-1</dim>
				</port>
				<port id="1" precision="FP32">
					<dim>1</dim>
					<dim>256</dim>
					<dim>1</dim>
					<dim>1</dim>
				</port>
			</input>
			<output>
				<port id="2" precision="FP32" names="batch_norm_45.tmp_3">
					<dim>-1</dim>
					<dim>256</dim>
					<dim>4</dim>
					<dim>-1</dim>
				</port>
			</output>
		</layer>
		<layer id="95" name="HSwish_5234" type="HSwish" version="opset4">
			<rt_info>
				<attribute name="fused_names" version="0" value="Add_18, Clip_18, Mul_18"/>
			</rt_info>
			<input>
				<port id="0" precision="FP32">
					<dim>-1</dim>
					<dim>256</dim>
					<dim>4</dim>
					<dim>-1</dim>
				</port>
			</input>
			<output>
				<port id="1" precision="FP32">
					<dim>-1</dim>
					<dim>256</dim>
					<dim>4</dim>
					<dim>-1</dim>
				</port>
			</output>
		</layer>
		<layer id="96" name="Multiply_10307" type="Const" version="opset1">
			<data element_type="f32" shape="256, 1, 1, 5, 5" offset="1147136" size="25600"/>
			<output>
				<port id="0" precision="FP32">
					<dim>256</dim>
					<dim>1</dim>
					<dim>1</dim>
					<dim>5</dim>
					<dim>5</dim>
				</port>
			</output>
		</layer>
		<layer id="97" name="Multiply_9909" type="GroupConvolution" version="opset1">
			<data strides="1, 1" pads_begin="2, 2" pads_end="2, 2" dilations="1, 1" auto_pad="explicit"/>
			<rt_info>
				<attribute name="fused_names" version="0" value="batch_norm_46.b_0, batch_norm_46.tmp_3, batch_norm_46.w_0, batch_norm_46.w_1, batch_norm_46.w_2"/>
			</rt_info>
			<input>
				<port id="0" precision="FP32">
					<dim>-1</dim>
					<dim>256</dim>
					<dim>4</dim>
					<dim>-1</dim>
				</port>
				<port id="1" precision="FP32">
					<dim>256</dim>
					<dim>1</dim>
					<dim>1</dim>
					<dim>5</dim>
					<dim>5</dim>
				</port>
			</input>
			<output>
				<port id="2" precision="FP32" names="depthwise_conv2d_22.tmp_0">
					<dim>-1</dim>
					<dim>256</dim>
					<dim>4</dim>
					<dim>-1</dim>
				</port>
			</output>
		</layer>
		<layer id="98" name="Constant_9914" type="Const" version="opset1">
			<data element_type="f32" shape="1, 256, 1, 1" offset="1172736" size="1024"/>
			<output>
				<port id="0" precision="FP32">
					<dim>1</dim>
					<dim>256</dim>
					<dim>1</dim>
					<dim>1</dim>
				</port>
			</output>
		</layer>
		<layer id="99" name="batch_norm_46.tmp_3" type="Add" version="opset1">
			<data auto_broadcast="numpy"/>
			<rt_info>
				<attribute name="fused_names" version="0" value="batch_norm_46.b_0, batch_norm_46.tmp_3, batch_norm_46.w_0, batch_norm_46.w_1, batch_norm_46.w_2"/>
			</rt_info>
			<input>
				<port id="0" precision="FP32">
					<dim>-1</dim>
					<dim>256</dim>
					<dim>4</dim>
					<dim>-1</dim>
				</port>
				<port id="1" precision="FP32">
					<dim>1</dim>
					<dim>256</dim>
					<dim>1</dim>
					<dim>1</dim>
				</port>
			</input>
			<output>
				<port id="2" precision="FP32" names="batch_norm_46.tmp_3">
					<dim>-1</dim>
					<dim>256</dim>
					<dim>4</dim>
					<dim>-1</dim>
				</port>
			</output>
		</layer>
		<layer id="100" name="HSwish_5237" type="HSwish" version="opset4">
			<rt_info>
				<attribute name="fused_names" version="0" value="Add_19, Clip_19, Mul_19"/>
			</rt_info>
			<input>
				<port id="0" precision="FP32">
					<dim>-1</dim>
					<dim>256</dim>
					<dim>4</dim>
					<dim>-1</dim>
				</port>
			</input>
			<output>
				<port id="1" precision="FP32">
					<dim>-1</dim>
					<dim>256</dim>
					<dim>4</dim>
					<dim>-1</dim>
				</port>
			</output>
		</layer>
		<layer id="101" name="Multiply_10321" type="Const" version="opset1">
			<data element_type="f32" shape="256, 256, 1, 1" offset="1173760" size="262144"/>
			<output>
				<port id="0" precision="FP32">
					<dim>256</dim>
					<dim>256</dim>
					<dim>1</dim>
					<dim>1</dim>
				</port>
			</output>
		</layer>
		<layer id="102" name="Multiply_9919" type="Convolution" version="opset1">
			<data strides="1, 1" dilations="1, 1" pads_begin="0, 0" pads_end="0, 0" auto_pad="explicit"/>
			<rt_info>
				<attribute name="fused_names" version="0" value="Add_19, Clip_19, Constant_38, Mul_19, batch_norm_46.tmp_4, batch_norm_47.b_0, batch_norm_47.tmp_3, batch_norm_47.w_0, batch_norm_47.w_1, batch_norm_47.w_2, conv2d_107.tmp_0, conv2d_57.w_0"/>
			</rt_info>
			<input>
				<port id="0" precision="FP32">
					<dim>-1</dim>
					<dim>256</dim>
					<dim>4</dim>
					<dim>-1</dim>
				</port>
				<port id="1" precision="FP32">
					<dim>256</dim>
					<dim>256</dim>
					<dim>1</dim>
					<dim>1</dim>
				</port>
			</input>
			<output>
				<port id="2" precision="FP32">
					<dim>-1</dim>
					<dim>256</dim>
					<dim>4</dim>
					<dim>-1</dim>
				</port>
			</output>
		</layer>
		<layer id="103" name="Constant_9924" type="Const" version="opset1">
			<data element_type="f32" shape="1, 256, 1, 1" offset="1435904" size="1024"/>
			<output>
				<port id="0" precision="FP32">
					<dim>1</dim>
					<dim>256</dim>
					<dim>1</dim>
					<dim>1</dim>
				</port>
			</output>
		</layer>
		<layer id="104" name="batch_norm_47.tmp_3" type="Add" version="opset1">
			<data auto_broadcast="numpy"/>
			<rt_info>
				<attribute name="fused_names" version="0" value="batch_norm_47.b_0, batch_norm_47.tmp_3, batch_norm_47.w_0, batch_norm_47.w_1, batch_norm_47.w_2"/>
			</rt_info>
			<input>
				<port id="0" precision="FP32">
					<dim>-1</dim>
					<dim>256</dim>
					<dim>4</dim>
					<dim>-1</dim>
				</port>
				<port id="1" precision="FP32">
					<dim>1</dim>
					<dim>256</dim>
					<dim>1</dim>
					<dim>1</dim>
				</port>
			</input>
			<output>
				<port id="2" precision="FP32" names="batch_norm_47.tmp_3">
					<dim>-1</dim>
					<dim>256</dim>
					<dim>4</dim>
					<dim>-1</dim>
				</port>
			</output>
		</layer>
		<layer id="105" name="HSwish_5240" type="HSwish" version="opset4">
			<rt_info>
				<attribute name="fused_names" version="0" value="Add_20, Clip_20, Mul_20"/>
			</rt_info>
			<input>
				<port id="0" precision="FP32">
					<dim>-1</dim>
					<dim>256</dim>
					<dim>4</dim>
					<dim>-1</dim>
				</port>
			</input>
			<output>
				<port id="1" precision="FP32">
					<dim>-1</dim>
					<dim>256</dim>
					<dim>4</dim>
					<dim>-1</dim>
				</port>
			</output>
		</layer>
		<layer id="106" name="Multiply_10336" type="Const" version="opset1">
			<data element_type="f32" shape="256, 1, 1, 5, 5" offset="1436928" size="25600"/>
			<output>
				<port id="0" precision="FP32">
					<dim>256</dim>
					<dim>1</dim>
					<dim>1</dim>
					<dim>5</dim>
					<dim>5</dim>
				</port>
			</output>
		</layer>
		<layer id="107" name="Multiply_9929" type="GroupConvolution" version="opset1">
			<data strides="1, 1" pads_begin="2, 2" pads_end="2, 2" dilations="1, 1" auto_pad="explicit"/>
			<rt_info>
				<attribute name="fused_names" version="0" value="batch_norm_48.b_0, batch_norm_48.tmp_3, batch_norm_48.w_0, batch_norm_48.w_1, batch_norm_48.w_2"/>
			</rt_info>
			<input>
				<port id="0" precision="FP32">
					<dim>-1</dim>
					<dim>256</dim>
					<dim>4</dim>
					<dim>-1</dim>
				</port>
				<port id="1" precision="FP32">
					<dim>256</dim>
					<dim>1</dim>
					<dim>1</dim>
					<dim>5</dim>
					<dim>5</dim>
				</port>
			</input>
			<output>
				<port id="2" precision="FP32" names="depthwise_conv2d_23.tmp_0">
					<dim>-1</dim>
					<dim>256</dim>
					<dim>4</dim>
					<dim>-1</dim>
				</port>
			</output>
		</layer>
		<layer id="108" name="Constant_9934" type="Const" version="opset1">
			<data element_type="f32" shape="1, 256, 1, 1" offset="1462528" size="1024"/>
			<output>
				<port id="0" precision="FP32">
					<dim>1</dim>
					<dim>256</dim>
					<dim>1</dim>
					<dim>1</dim>
				</port>
			</output>
		</layer>
		<layer id="109" name="batch_norm_48.tmp_3" type="Add" version="opset1">
			<data auto_broadcast="numpy"/>
			<rt_info>
				<attribute name="fused_names" version="0" value="batch_norm_48.b_0, batch_norm_48.tmp_3, batch_norm_48.w_0, batch_norm_48.w_1, batch_norm_48.w_2"/>
			</rt_info>
			<input>
				<port id="0" precision="FP32">
					<dim>-1</dim>
					<dim>256</dim>
					<dim>4</dim>
					<dim>-1</dim>
				</port>
				<port id="1" precision="FP32">
					<dim>1</dim>
					<dim>256</dim>
					<dim>1</dim>
					<dim>1</dim>
				</port>
			</input>
			<output>
				<port id="2" precision="FP32" names="batch_norm_48.tmp_3">
					<dim>-1</dim>
					<dim>256</dim>
					<dim>4</dim>
					<dim>-1</dim>
				</port>
			</output>
		</layer>
		<layer id="110" name="HSwish_5243" type="HSwish" version="opset4">
			<rt_info>
				<attribute name="fused_names" version="0" value="Add_21, Clip_21, Mul_21"/>
			</rt_info>
			<input>
				<port id="0" precision="FP32">
					<dim>-1</dim>
					<dim>256</dim>
					<dim>4</dim>
					<dim>-1</dim>
				</port>
			</input>
			<output>
				<port id="1" precision="FP32">
					<dim>-1</dim>
					<dim>256</dim>
					<dim>4</dim>
					<dim>-1</dim>
				</port>
			</output>
		</layer>
		<layer id="111" name="Multiply_10350" type="Const" version="opset1">
			<data element_type="f32" shape="256, 256, 1, 1" offset="1463552" size="262144"/>
			<output>
				<port id="0" precision="FP32">
					<dim>256</dim>
					<dim>256</dim>
					<dim>1</dim>
					<dim>1</dim>
				</port>
			</output>
		</layer>
		<layer id="112" name="Multiply_9939" type="Convolution" version="opset1">
			<data strides="1, 1" dilations="1, 1" pads_begin="0, 0" pads_end="0, 0" auto_pad="explicit"/>
			<rt_info>
				<attribute name="fused_names" version="0" value="Add_21, Clip_21, Constant_42, Mul_21, batch_norm_48.tmp_4, batch_norm_49.b_0, batch_norm_49.tmp_3, batch_norm_49.w_0, batch_norm_49.w_1, batch_norm_49.w_2, conv2d_108.tmp_0, conv2d_59.w_0"/>
			</rt_info>
			<input>
				<port id="0" precision="FP32">
					<dim>-1</dim>
					<dim>256</dim>
					<dim>4</dim>
					<dim>-1</dim>
				</port>
				<port id="1" precision="FP32">
					<dim>256</dim>
					<dim>256</dim>
					<dim>1</dim>
					<dim>1</dim>
				</port>
			</input>
			<output>
				<port id="2" precision="FP32">
					<dim>-1</dim>
					<dim>256</dim>
					<dim>4</dim>
					<dim>-1</dim>
				</port>
			</output>
		</layer>
		<layer id="113" name="Constant_9944" type="Const" version="opset1">
			<data element_type="f32" shape="1, 256, 1, 1" offset="1725696" size="1024"/>
			<output>
				<port id="0" precision="FP32">
					<dim>1</dim>
					<dim>256</dim>
					<dim>1</dim>
					<dim>1</dim>
				</port>
			</output>
		</layer>
		<layer id="114" name="batch_norm_49.tmp_3" type="Add" version="opset1">
			<data auto_broadcast="numpy"/>
			<rt_info>
				<attribute name="fused_names" version="0" value="batch_norm_49.b_0, batch_norm_49.tmp_3, batch_norm_49.w_0, batch_norm_49.w_1, batch_norm_49.w_2"/>
			</rt_info>
			<input>
				<port id="0" precision="FP32">
					<dim>-1</dim>
					<dim>256</dim>
					<dim>4</dim>
					<dim>-1</dim>
				</port>
				<port id="1" precision="FP32">
					<dim>1</dim>
					<dim>256</dim>
					<dim>1</dim>
					<dim>1</dim>
				</port>
			</input>
			<output>
				<port id="2" precision="FP32" names="batch_norm_49.tmp_3">
					<dim>-1</dim>
					<dim>256</dim>
					<dim>4</dim>
					<dim>-1</dim>
				</port>
			</output>
		</layer>
		<layer id="115" name="HSwish_5246" type="HSwish" version="opset4">
			<rt_info>
				<attribute name="fused_names" version="0" value="Add_22, Clip_22, Mul_22"/>
			</rt_info>
			<input>
				<port id="0" precision="FP32">
					<dim>-1</dim>
					<dim>256</dim>
					<dim>4</dim>
					<dim>-1</dim>
				</port>
			</input>
			<output>
				<port id="1" precision="FP32">
					<dim>-1</dim>
					<dim>256</dim>
					<dim>4</dim>
					<dim>-1</dim>
				</port>
			</output>
		</layer>
		<layer id="116" name="Multiply_10365" type="Const" version="opset1">
			<data element_type="f32" shape="256, 1, 1, 5, 5" offset="1726720" size="25600"/>
			<output>
				<port id="0" precision="FP32">
					<dim>256</dim>
					<dim>1</dim>
					<dim>1</dim>
					<dim>5</dim>
					<dim>5</dim>
				</port>
			</output>
		</layer>
		<layer id="117" name="Multiply_9949" type="GroupConvolution" version="opset1">
			<data strides="2, 1" pads_begin="2, 2" pads_end="2, 2" dilations="1, 1" auto_pad="explicit"/>
			<rt_info>
				<attribute name="fused_names" version="0" value="batch_norm_50.b_0, batch_norm_50.tmp_3, batch_norm_50.w_0, batch_norm_50.w_1, batch_norm_50.w_2"/>
			</rt_info>
			<input>
				<port id="0" precision="FP32">
					<dim>-1</dim>
					<dim>256</dim>
					<dim>4</dim>
					<dim>-1</dim>
				</port>
				<port id="1" precision="FP32">
					<dim>256</dim>
					<dim>1</dim>
					<dim>1</dim>
					<dim>5</dim>
					<dim>5</dim>
				</port>
			</input>
			<output>
				<port id="2" precision="FP32" names="depthwise_conv2d_24.tmp_0">
					<dim>-1</dim>
					<dim>256</dim>
					<dim>2</dim>
					<dim>-1</dim>
				</port>
			</output>
		</layer>
		<layer id="118" name="Constant_9954" type="Const" version="opset1">
			<data element_type="f32" shape="1, 256, 1, 1" offset="1752320" size="1024"/>
			<output>
				<port id="0" precision="FP32">
					<dim>1</dim>
					<dim>256</dim>
					<dim>1</dim>
					<dim>1</dim>
				</port>
			</output>
		</layer>
		<layer id="119" name="batch_norm_50.tmp_3" type="Add" version="opset1">
			<data auto_broadcast="numpy"/>
			<rt_info>
				<attribute name="fused_names" version="0" value="batch_norm_50.b_0, batch_norm_50.tmp_3, batch_norm_50.w_0, batch_norm_50.w_1, batch_norm_50.w_2"/>
			</rt_info>
			<input>
				<port id="0" precision="FP32">
					<dim>-1</dim>
					<dim>256</dim>
					<dim>2</dim>
					<dim>-1</dim>
				</port>
				<port id="1" precision="FP32">
					<dim>1</dim>
					<dim>256</dim>
					<dim>1</dim>
					<dim>1</dim>
				</port>
			</input>
			<output>
				<port id="2" precision="FP32" names="batch_norm_50.tmp_3">
					<dim>-1</dim>
					<dim>256</dim>
					<dim>2</dim>
					<dim>-1</dim>
				</port>
			</output>
		</layer>
		<layer id="120" name="HSwish_5249" type="HSwish" version="opset4">
			<rt_info>
				<attribute name="fused_names" version="0" value="Add_23, Clip_23, Mul_23"/>
			</rt_info>
			<input>
				<port id="0" precision="FP32">
					<dim>-1</dim>
					<dim>256</dim>
					<dim>2</dim>
					<dim>-1</dim>
				</port>
			</input>
			<output>
				<port id="1" precision="FP32">
					<dim>-1</dim>
					<dim>256</dim>
					<dim>2</dim>
					<dim>-1</dim>
				</port>
			</output>
		</layer>
		<layer id="121" name="Constant_10886" type="Const" version="opset1">
			<data element_type="f32" shape="1, 1, 1, 1" offset="1753344" size="4"/>
			<output>
				<port id="0" precision="FP32">
					<dim>1</dim>
					<dim>1</dim>
					<dim>1</dim>
					<dim>1</dim>
				</port>
			</output>
		</layer>
		<layer id="122" name="batch_norm_50.tmp_4" type="Multiply" version="opset1">
			<data auto_broadcast="numpy"/>
			<rt_info>
				<attribute name="fused_names" version="0" value="Add_23, Clip_23, Constant_46, Mul_23, batch_norm_50.tmp_4"/>
			</rt_info>
			<input>
				<port id="0" precision="FP32">
					<dim>-1</dim>
					<dim>256</dim>
					<dim>2</dim>
					<dim>-1</dim>
				</port>
				<port id="1" precision="FP32">
					<dim>1</dim>
					<dim>1</dim>
					<dim>1</dim>
					<dim>1</dim>
				</port>
			</input>
			<output>
				<port id="2" precision="FP32" names="batch_norm_50.tmp_4">
					<dim>-1</dim>
					<dim>256</dim>
					<dim>2</dim>
					<dim>-1</dim>
				</port>
			</output>
		</layer>
		<layer id="123" name="Range_1296" type="Const" version="opset1">
			<data element_type="i64" shape="2" offset="1753348" size="16"/>
			<output>
				<port id="0" precision="I64">
					<dim>2</dim>
				</port>
			</output>
		</layer>
		<layer id="124" name="pool2d_3.tmp_0" type="ReduceMean" version="opset1">
			<data keep_dims="true"/>
			<rt_info>
				<attribute name="fused_names" version="0" value="Range_1296, pool2d_3.tmp_0"/>
			</rt_info>
			<input>
				<port id="0" precision="FP32">
					<dim>-1</dim>
					<dim>256</dim>
					<dim>2</dim>
					<dim>-1</dim>
				</port>
				<port id="1" precision="I64">
					<dim>2</dim>
				</port>
			</input>
			<output>
				<port id="2" precision="FP32" names="pool2d_3.tmp_0">
					<dim>-1</dim>
					<dim>256</dim>
					<dim>1</dim>
					<dim>1</dim>
				</port>
			</output>
		</layer>
		<layer id="125" name="conv2d_61.w_0" type="Const" version="opset1">
			<data element_type="f32" shape="64, 256, 1, 1" offset="1753364" size="65536"/>
			<rt_info>
				<attribute name="fused_names" version="0" value="conv2d_61.w_0"/>
			</rt_info>
			<output>
				<port id="0" precision="FP32" names="conv2d_61.w_0">
					<dim>64</dim>
					<dim>256</dim>
					<dim>1</dim>
					<dim>1</dim>
				</port>
			</output>
		</layer>
		<layer id="126" name="conv2d_109.tmp_0" type="Convolution" version="opset1">
			<data strides="1, 1" dilations="1, 1" pads_begin="0, 0" pads_end="0, 0" auto_pad="explicit"/>
			<rt_info>
				<attribute name="fused_names" version="0" value="conv2d_109.tmp_0"/>
			</rt_info>
			<input>
				<port id="0" precision="FP32">
					<dim>-1</dim>
					<dim>256</dim>
					<dim>1</dim>
					<dim>1</dim>
				</port>
				<port id="1" precision="FP32">
					<dim>64</dim>
					<dim>256</dim>
					<dim>1</dim>
					<dim>1</dim>
				</port>
			</input>
			<output>
				<port id="2" precision="FP32" names="conv2d_109.tmp_0">
					<dim>-1</dim>
					<dim>64</dim>
					<dim>1</dim>
					<dim>1</dim>
				</port>
			</output>
		</layer>
		<layer id="127" name="Reshape_0" type="Const" version="opset1">
			<data element_type="f32" shape="1, 64, 1, 1" offset="1818900" size="256"/>
			<output>
				<port id="0" precision="FP32" names="Reshape_0">
					<dim>1</dim>
					<dim>64</dim>
					<dim>1</dim>
					<dim>1</dim>
				</port>
			</output>
		</layer>
		<layer id="128" name="conv2d_109.tmp_1" type="Add" version="opset1">
			<data auto_broadcast="numpy"/>
			<rt_info>
				<attribute name="fused_names" version="0" value="Reshape_0, conv2d_109.tmp_1"/>
			</rt_info>
			<input>
				<port id="0" precision="FP32">
					<dim>-1</dim>
					<dim>64</dim>
					<dim>1</dim>
					<dim>1</dim>
				</port>
				<port id="1" precision="FP32">
					<dim>1</dim>
					<dim>64</dim>
					<dim>1</dim>
					<dim>1</dim>
				</port>
			</input>
			<output>
				<port id="2" precision="FP32" names="conv2d_109.tmp_1">
					<dim>-1</dim>
					<dim>64</dim>
					<dim>1</dim>
					<dim>1</dim>
				</port>
			</output>
		</layer>
		<layer id="129" name="relu_2.tmp_0" type="ReLU" version="opset1">
			<rt_info>
				<attribute name="fused_names" version="0" value="relu_2.tmp_0"/>
			</rt_info>
			<input>
				<port id="0" precision="FP32">
					<dim>-1</dim>
					<dim>64</dim>
					<dim>1</dim>
					<dim>1</dim>
				</port>
			</input>
			<output>
				<port id="1" precision="FP32" names="relu_2.tmp_0">
					<dim>-1</dim>
					<dim>64</dim>
					<dim>1</dim>
					<dim>1</dim>
				</port>
			</output>
		</layer>
		<layer id="130" name="conv2d_62.w_0" type="Const" version="opset1">
			<data element_type="f32" shape="256, 64, 1, 1" offset="1819156" size="65536"/>
			<rt_info>
				<attribute name="fused_names" version="0" value="conv2d_62.w_0"/>
			</rt_info>
			<output>
				<port id="0" precision="FP32" names="conv2d_62.w_0">
					<dim>256</dim>
					<dim>64</dim>
					<dim>1</dim>
					<dim>1</dim>
				</port>
			</output>
		</layer>
		<layer id="131" name="conv2d_110.tmp_0" type="Convolution" version="opset1">
			<data strides="1, 1" dilations="1, 1" pads_begin="0, 0" pads_end="0, 0" auto_pad="explicit"/>
			<rt_info>
				<attribute name="fused_names" version="0" value="conv2d_110.tmp_0"/>
			</rt_info>
			<input>
				<port id="0" precision="FP32">
					<dim>-1</dim>
					<dim>64</dim>
					<dim>1</dim>
					<dim>1</dim>
				</port>
				<port id="1" precision="FP32">
					<dim>256</dim>
					<dim>64</dim>
					<dim>1</dim>
					<dim>1</dim>
				</port>
			</input>
			<output>
				<port id="2" precision="FP32" names="conv2d_110.tmp_0">
					<dim>-1</dim>
					<dim>256</dim>
					<dim>1</dim>
					<dim>1</dim>
				</port>
			</output>
		</layer>
		<layer id="132" name="Reshape_1" type="Const" version="opset1">
			<data element_type="f32" shape="1, 256, 1, 1" offset="1884692" size="1024"/>
			<output>
				<port id="0" precision="FP32" names="Reshape_1">
					<dim>1</dim>
					<dim>256</dim>
					<dim>1</dim>
					<dim>1</dim>
				</port>
			</output>
		</layer>
		<layer id="133" name="conv2d_110.tmp_1" type="Add" version="opset1">
			<data auto_broadcast="numpy"/>
			<rt_info>
				<attribute name="fused_names" version="0" value="Reshape_1, conv2d_110.tmp_1"/>
			</rt_info>
			<input>
				<port id="0" precision="FP32">
					<dim>-1</dim>
					<dim>256</dim>
					<dim>1</dim>
					<dim>1</dim>
				</port>
				<port id="1" precision="FP32">
					<dim>1</dim>
					<dim>256</dim>
					<dim>1</dim>
					<dim>1</dim>
				</port>
			</input>
			<output>
				<port id="2" precision="FP32" names="conv2d_110.tmp_1">
					<dim>-1</dim>
					<dim>256</dim>
					<dim>1</dim>
					<dim>1</dim>
				</port>
			</output>
		</layer>
		<layer id="134" name="Constant_1342" type="Const" version="opset1">
			<data element_type="f32" shape="" offset="1885716" size="4"/>
			<rt_info>
				<attribute name="fused_names" version="0" value="Constant_1342"/>
			</rt_info>
			<output>
				<port id="0" precision="FP32"/>
			</output>
		</layer>
		<layer id="135" name="Constant_1343" type="Const" version="opset1">
			<data element_type="f32" shape="" offset="1885720" size="4"/>
			<rt_info>
				<attribute name="fused_names" version="0" value="Constant_1343"/>
			</rt_info>
			<output>
				<port id="0" precision="FP32"/>
			</output>
		</layer>
		<layer id="136" name="hardsigmoid_2.tmp_0" type="HardSigmoid" version="opset1">
			<rt_info>
				<attribute name="fused_names" version="0" value="hardsigmoid_2.tmp_0"/>
			</rt_info>
			<input>
				<port id="0" precision="FP32">
					<dim>-1</dim>
					<dim>256</dim>
					<dim>1</dim>
					<dim>1</dim>
				</port>
				<port id="1" precision="FP32"/>
				<port id="2" precision="FP32"/>
			</input>
			<output>
				<port id="3" precision="FP32" names="hardsigmoid_2.tmp_0">
					<dim>-1</dim>
					<dim>256</dim>
					<dim>1</dim>
					<dim>1</dim>
				</port>
			</output>
		</layer>
		<layer id="137" name="elementwise_mul_2" type="Multiply" version="opset1">
			<data auto_broadcast="numpy"/>
			<rt_info>
				<attribute name="fused_names" version="0" value="elementwise_mul_2"/>
			</rt_info>
			<input>
				<port id="0" precision="FP32">
					<dim>-1</dim>
					<dim>256</dim>
					<dim>2</dim>
					<dim>-1</dim>
				</port>
				<port id="1" precision="FP32">
					<dim>-1</dim>
					<dim>256</dim>
					<dim>1</dim>
					<dim>1</dim>
				</port>
			</input>
			<output>
				<port id="2" precision="FP32" names="elementwise_mul_2">
					<dim>-1</dim>
					<dim>256</dim>
					<dim>2</dim>
					<dim>-1</dim>
				</port>
			</output>
		</layer>
		<layer id="138" name="Multiply_10373" type="Const" version="opset1">
			<data element_type="f32" shape="512, 256, 1, 1" offset="1885724" size="524288"/>
			<output>
				<port id="0" precision="FP32">
					<dim>512</dim>
					<dim>256</dim>
					<dim>1</dim>
					<dim>1</dim>
				</port>
			</output>
		</layer>
		<layer id="139" name="Multiply_9959" type="Convolution" version="opset1">
			<data strides="1, 1" dilations="1, 1" pads_begin="0, 0" pads_end="0, 0" auto_pad="explicit"/>
			<rt_info>
				<attribute name="fused_names" version="0" value="batch_norm_51.b_0, batch_norm_51.tmp_3, batch_norm_51.w_0, batch_norm_51.w_1, batch_norm_51.w_2, conv2d_111.tmp_0"/>
			</rt_info>
			<input>
				<port id="0" precision="FP32">
					<dim>-1</dim>
					<dim>256</dim>
					<dim>2</dim>
					<dim>-1</dim>
				</port>
				<port id="1" precision="FP32">
					<dim>512</dim>
					<dim>256</dim>
					<dim>1</dim>
					<dim>1</dim>
				</port>
			</input>
			<output>
				<port id="2" precision="FP32">
					<dim>-1</dim>
					<dim>512</dim>
					<dim>2</dim>
					<dim>-1</dim>
				</port>
			</output>
		</layer>
		<layer id="140" name="Constant_9964" type="Const" version="opset1">
			<data element_type="f32" shape="1, 512, 1, 1" offset="2410012" size="2048"/>
			<output>
				<port id="0" precision="FP32">
					<dim>1</dim>
					<dim>512</dim>
					<dim>1</dim>
					<dim>1</dim>
				</port>
			</output>
		</layer>
		<layer id="141" name="batch_norm_51.tmp_3" type="Add" version="opset1">
			<data auto_broadcast="numpy"/>
			<rt_info>
				<attribute name="fused_names" version="0" value="batch_norm_51.b_0, batch_norm_51.tmp_3, batch_norm_51.w_0, batch_norm_51.w_1, batch_norm_51.w_2"/>
			</rt_info>
			<input>
				<port id="0" precision="FP32">
					<dim>-1</dim>
					<dim>512</dim>
					<dim>2</dim>
					<dim>-1</dim>
				</port>
				<port id="1" precision="FP32">
					<dim>1</dim>
					<dim>512</dim>
					<dim>1</dim>
					<dim>1</dim>
				</port>
			</input>
			<output>
				<port id="2" precision="FP32" names="batch_norm_51.tmp_3">
					<dim>-1</dim>
					<dim>512</dim>
					<dim>2</dim>
					<dim>-1</dim>
				</port>
			</output>
		</layer>
		<layer id="142" name="HSwish_5252" type="HSwish" version="opset4">
			<rt_info>
				<attribute name="fused_names" version="0" value="Add_26, Clip_24, Mul_25"/>
			</rt_info>
			<input>
				<port id="0" precision="FP32">
					<dim>-1</dim>
					<dim>512</dim>
					<dim>2</dim>
					<dim>-1</dim>
				</port>
			</input>
			<output>
				<port id="1" precision="FP32">
					<dim>-1</dim>
					<dim>512</dim>
					<dim>2</dim>
					<dim>-1</dim>
				</port>
			</output>
		</layer>
		<layer id="143" name="Multiply_10388" type="Const" version="opset1">
			<data element_type="f32" shape="512, 1, 1, 5, 5" offset="2412060" size="51200"/>
			<output>
				<port id="0" precision="FP32">
					<dim>512</dim>
					<dim>1</dim>
					<dim>1</dim>
					<dim>5</dim>
					<dim>5</dim>
				</port>
			</output>
		</layer>
		<layer id="144" name="Multiply_9969" type="GroupConvolution" version="opset1">
			<data strides="1, 2" pads_begin="2, 2" pads_end="2, 2" dilations="1, 1" auto_pad="explicit"/>
			<rt_info>
				<attribute name="fused_names" version="0" value="batch_norm_52.b_0, batch_norm_52.tmp_3, batch_norm_52.w_0, batch_norm_52.w_1, batch_norm_52.w_2"/>
			</rt_info>
			<input>
				<port id="0" precision="FP32">
					<dim>-1</dim>
					<dim>512</dim>
					<dim>2</dim>
					<dim>-1</dim>
				</port>
				<port id="1" precision="FP32">
					<dim>512</dim>
					<dim>1</dim>
					<dim>1</dim>
					<dim>5</dim>
					<dim>5</dim>
				</port>
			</input>
			<output>
				<port id="2" precision="FP32" names="depthwise_conv2d_25.tmp_0">
					<dim>-1</dim>
					<dim>512</dim>
					<dim>2</dim>
					<dim>-1</dim>
				</port>
			</output>
		</layer>
		<layer id="145" name="Constant_9974" type="Const" version="opset1">
			<data element_type="f32" shape="1, 512, 1, 1" offset="2463260" size="2048"/>
			<output>
				<port id="0" precision="FP32">
					<dim>1</dim>
					<dim>512</dim>
					<dim>1</dim>
					<dim>1</dim>
				</port>
			</output>
		</layer>
		<layer id="146" name="batch_norm_52.tmp_3" type="Add" version="opset1">
			<data auto_broadcast="numpy"/>
			<rt_info>
				<attribute name="fused_names" version="0" value="batch_norm_52.b_0, batch_norm_52.tmp_3, batch_norm_52.w_0, batch_norm_52.w_1, batch_norm_52.w_2"/>
			</rt_info>
			<input>
				<port id="0" precision="FP32">
					<dim>-1</dim>
					<dim>512</dim>
					<dim>2</dim>
					<dim>-1</dim>
				</port>
				<port id="1" precision="FP32">
					<dim>1</dim>
					<dim>512</dim>
					<dim>1</dim>
					<dim>1</dim>
				</port>
			</input>
			<output>
				<port id="2" precision="FP32" names="batch_norm_52.tmp_3">
					<dim>-1</dim>
					<dim>512</dim>
					<dim>2</dim>
					<dim>-1</dim>
				</port>
			</output>
		</layer>
		<layer id="147" name="HSwish_5255" type="HSwish" version="opset4">
			<rt_info>
				<attribute name="fused_names" version="0" value="Add_27, Clip_25, Mul_26"/>
			</rt_info>
			<input>
				<port id="0" precision="FP32">
					<dim>-1</dim>
					<dim>512</dim>
					<dim>2</dim>
					<dim>-1</dim>
				</port>
			</input>
			<output>
				<port id="1" precision="FP32">
					<dim>-1</dim>
					<dim>512</dim>
					<dim>2</dim>
					<dim>-1</dim>
				</port>
			</output>
		</layer>
		<layer id="148" name="Constant_10887" type="Const" version="opset1">
			<data element_type="f32" shape="1, 1, 1, 1" offset="1753344" size="4"/>
			<output>
				<port id="0" precision="FP32">
					<dim>1</dim>
					<dim>1</dim>
					<dim>1</dim>
					<dim>1</dim>
				</port>
			</output>
		</layer>
		<layer id="149" name="batch_norm_52.tmp_4" type="Multiply" version="opset1">
			<data auto_broadcast="numpy"/>
			<rt_info>
				<attribute name="fused_names" version="0" value="Add_27, Clip_25, Constant_52, Mul_26, batch_norm_52.tmp_4"/>
			</rt_info>
			<input>
				<port id="0" precision="FP32">
					<dim>-1</dim>
					<dim>512</dim>
					<dim>2</dim>
					<dim>-1</dim>
				</port>
				<port id="1" precision="FP32">
					<dim>1</dim>
					<dim>1</dim>
					<dim>1</dim>
					<dim>1</dim>
				</port>
			</input>
			<output>
				<port id="2" precision="FP32" names="batch_norm_52.tmp_4">
					<dim>-1</dim>
					<dim>512</dim>
					<dim>2</dim>
					<dim>-1</dim>
				</port>
			</output>
		</layer>
		<layer id="150" name="Range_1444" type="Const" version="opset1">
			<data element_type="i64" shape="2" offset="1753348" size="16"/>
			<output>
				<port id="0" precision="I64">
					<dim>2</dim>
				</port>
			</output>
		</layer>
		<layer id="151" name="pool2d_4.tmp_0" type="ReduceMean" version="opset1">
			<data keep_dims="true"/>
			<rt_info>
				<attribute name="fused_names" version="0" value="Range_1444, pool2d_4.tmp_0"/>
			</rt_info>
			<input>
				<port id="0" precision="FP32">
					<dim>-1</dim>
					<dim>512</dim>
					<dim>2</dim>
					<dim>-1</dim>
				</port>
				<port id="1" precision="I64">
					<dim>2</dim>
				</port>
			</input>
			<output>
				<port id="2" precision="FP32" names="pool2d_4.tmp_0">
					<dim>-1</dim>
					<dim>512</dim>
					<dim>1</dim>
					<dim>1</dim>
				</port>
			</output>
		</layer>
		<layer id="152" name="conv2d_65.w_0" type="Const" version="opset1">
			<data element_type="f32" shape="128, 512, 1, 1" offset="2465308" size="262144"/>
			<rt_info>
				<attribute name="fused_names" version="0" value="conv2d_65.w_0"/>
			</rt_info>
			<output>
				<port id="0" precision="FP32" names="conv2d_65.w_0">
					<dim>128</dim>
					<dim>512</dim>
					<dim>1</dim>
					<dim>1</dim>
				</port>
			</output>
		</layer>
		<layer id="153" name="conv2d_112.tmp_0" type="Convolution" version="opset1">
			<data strides="1, 1" dilations="1, 1" pads_begin="0, 0" pads_end="0, 0" auto_pad="explicit"/>
			<rt_info>
				<attribute name="fused_names" version="0" value="conv2d_112.tmp_0"/>
			</rt_info>
			<input>
				<port id="0" precision="FP32">
					<dim>-1</dim>
					<dim>512</dim>
					<dim>1</dim>
					<dim>1</dim>
				</port>
				<port id="1" precision="FP32">
					<dim>128</dim>
					<dim>512</dim>
					<dim>1</dim>
					<dim>1</dim>
				</port>
			</input>
			<output>
				<port id="2" precision="FP32" names="conv2d_112.tmp_0">
					<dim>-1</dim>
					<dim>128</dim>
					<dim>1</dim>
					<dim>1</dim>
				</port>
			</output>
		</layer>
		<layer id="154" name="Reshape_2" type="Const" version="opset1">
			<data element_type="f32" shape="1, 128, 1, 1" offset="2727452" size="512"/>
			<output>
				<port id="0" precision="FP32" names="Reshape_2">
					<dim>1</dim>
					<dim>128</dim>
					<dim>1</dim>
					<dim>1</dim>
				</port>
			</output>
		</layer>
		<layer id="155" name="conv2d_112.tmp_1" type="Add" version="opset1">
			<data auto_broadcast="numpy"/>
			<rt_info>
				<attribute name="fused_names" version="0" value="Reshape_2, conv2d_112.tmp_1"/>
			</rt_info>
			<input>
				<port id="0" precision="FP32">
					<dim>-1</dim>
					<dim>128</dim>
					<dim>1</dim>
					<dim>1</dim>
				</port>
				<port id="1" precision="FP32">
					<dim>1</dim>
					<dim>128</dim>
					<dim>1</dim>
					<dim>1</dim>
				</port>
			</input>
			<output>
				<port id="2" precision="FP32" names="conv2d_112.tmp_1">
					<dim>-1</dim>
					<dim>128</dim>
					<dim>1</dim>
					<dim>1</dim>
				</port>
			</output>
		</layer>
		<layer id="156" name="relu_3.tmp_0" type="ReLU" version="opset1">
			<rt_info>
				<attribute name="fused_names" version="0" value="relu_3.tmp_0"/>
			</rt_info>
			<input>
				<port id="0" precision="FP32">
					<dim>-1</dim>
					<dim>128</dim>
					<dim>1</dim>
					<dim>1</dim>
				</port>
			</input>
			<output>
				<port id="1" precision="FP32" names="relu_3.tmp_0">
					<dim>-1</dim>
					<dim>128</dim>
					<dim>1</dim>
					<dim>1</dim>
				</port>
			</output>
		</layer>
		<layer id="157" name="conv2d_66.w_0" type="Const" version="opset1">
			<data element_type="f32" shape="512, 128, 1, 1" offset="2727964" size="262144"/>
			<rt_info>
				<attribute name="fused_names" version="0" value="conv2d_66.w_0"/>
			</rt_info>
			<output>
				<port id="0" precision="FP32" names="conv2d_66.w_0">
					<dim>512</dim>
					<dim>128</dim>
					<dim>1</dim>
					<dim>1</dim>
				</port>
			</output>
		</layer>
		<layer id="158" name="conv2d_113.tmp_0" type="Convolution" version="opset1">
			<data strides="1, 1" dilations="1, 1" pads_begin="0, 0" pads_end="0, 0" auto_pad="explicit"/>
			<rt_info>
				<attribute name="fused_names" version="0" value="conv2d_113.tmp_0"/>
			</rt_info>
			<input>
				<port id="0" precision="FP32">
					<dim>-1</dim>
					<dim>128</dim>
					<dim>1</dim>
					<dim>1</dim>
				</port>
				<port id="1" precision="FP32">
					<dim>512</dim>
					<dim>128</dim>
					<dim>1</dim>
					<dim>1</dim>
				</port>
			</input>
			<output>
				<port id="2" precision="FP32" names="conv2d_113.tmp_0">
					<dim>-1</dim>
					<dim>512</dim>
					<dim>1</dim>
					<dim>1</dim>
				</port>
			</output>
		</layer>
		<layer id="159" name="Reshape_3" type="Const" version="opset1">
			<data element_type="f32" shape="1, 512, 1, 1" offset="2990108" size="2048"/>
			<output>
				<port id="0" precision="FP32" names="Reshape_3">
					<dim>1</dim>
					<dim>512</dim>
					<dim>1</dim>
					<dim>1</dim>
				</port>
			</output>
		</layer>
		<layer id="160" name="conv2d_113.tmp_1" type="Add" version="opset1">
			<data auto_broadcast="numpy"/>
			<rt_info>
				<attribute name="fused_names" version="0" value="Reshape_3, conv2d_113.tmp_1"/>
			</rt_info>
			<input>
				<port id="0" precision="FP32">
					<dim>-1</dim>
					<dim>512</dim>
					<dim>1</dim>
					<dim>1</dim>
				</port>
				<port id="1" precision="FP32">
					<dim>1</dim>
					<dim>512</dim>
					<dim>1</dim>
					<dim>1</dim>
				</port>
			</input>
			<output>
				<port id="2" precision="FP32" names="conv2d_113.tmp_1">
					<dim>-1</dim>
					<dim>512</dim>
					<dim>1</dim>
					<dim>1</dim>
				</port>
			</output>
		</layer>
		<layer id="161" name="Constant_1490" type="Const" version="opset1">
			<data element_type="f32" shape="" offset="1885716" size="4"/>
			<rt_info>
				<attribute name="fused_names" version="0" value="Constant_1490"/>
			</rt_info>
			<output>
				<port id="0" precision="FP32"/>
			</output>
		</layer>
		<layer id="162" name="Constant_1491" type="Const" version="opset1">
			<data element_type="f32" shape="" offset="1885720" size="4"/>
			<rt_info>
				<attribute name="fused_names" version="0" value="Constant_1491"/>
			</rt_info>
			<output>
				<port id="0" precision="FP32"/>
			</output>
		</layer>
		<layer id="163" name="hardsigmoid_3.tmp_0" type="HardSigmoid" version="opset1">
			<rt_info>
				<attribute name="fused_names" version="0" value="hardsigmoid_3.tmp_0"/>
			</rt_info>
			<input>
				<port id="0" precision="FP32">
					<dim>-1</dim>
					<dim>512</dim>
					<dim>1</dim>
					<dim>1</dim>
				</port>
				<port id="1" precision="FP32"/>
				<port id="2" precision="FP32"/>
			</input>
			<output>
				<port id="3" precision="FP32" names="hardsigmoid_3.tmp_0">
					<dim>-1</dim>
					<dim>512</dim>
					<dim>1</dim>
					<dim>1</dim>
				</port>
			</output>
		</layer>
		<layer id="164" name="elementwise_mul_3" type="Multiply" version="opset1">
			<data auto_broadcast="numpy"/>
			<rt_info>
				<attribute name="fused_names" version="0" value="elementwise_mul_3"/>
			</rt_info>
			<input>
				<port id="0" precision="FP32">
					<dim>-1</dim>
					<dim>512</dim>
					<dim>2</dim>
					<dim>-1</dim>
				</port>
				<port id="1" precision="FP32">
					<dim>-1</dim>
					<dim>512</dim>
					<dim>1</dim>
					<dim>1</dim>
				</port>
			</input>
			<output>
				<port id="2" precision="FP32" names="elementwise_mul_3">
					<dim>-1</dim>
					<dim>512</dim>
					<dim>2</dim>
					<dim>-1</dim>
				</port>
			</output>
		</layer>
		<layer id="165" name="Multiply_10396" type="Const" version="opset1">
			<data element_type="f32" shape="512, 512, 1, 1" offset="2992156" size="1048576"/>
			<output>
				<port id="0" precision="FP32">
					<dim>512</dim>
					<dim>512</dim>
					<dim>1</dim>
					<dim>1</dim>
				</port>
			</output>
		</layer>
		<layer id="166" name="Multiply_9979" type="Convolution" version="opset1">
			<data strides="1, 1" dilations="1, 1" pads_begin="0, 0" pads_end="0, 0" auto_pad="explicit"/>
			<rt_info>
				<attribute name="fused_names" version="0" value="batch_norm_53.b_0, batch_norm_53.tmp_3, batch_norm_53.w_0, batch_norm_53.w_1, batch_norm_53.w_2, conv2d_114.tmp_0"/>
			</rt_info>
			<input>
				<port id="0" precision="FP32">
					<dim>-1</dim>
					<dim>512</dim>
					<dim>2</dim>
					<dim>-1</dim>
				</port>
				<port id="1" precision="FP32">
					<dim>512</dim>
					<dim>512</dim>
					<dim>1</dim>
					<dim>1</dim>
				</port>
			</input>
			<output>
				<port id="2" precision="FP32">
					<dim>-1</dim>
					<dim>512</dim>
					<dim>2</dim>
					<dim>-1</dim>
				</port>
			</output>
		</layer>
		<layer id="167" name="Constant_9984" type="Const" version="opset1">
			<data element_type="f32" shape="1, 512, 1, 1" offset="4040732" size="2048"/>
			<output>
				<port id="0" precision="FP32">
					<dim>1</dim>
					<dim>512</dim>
					<dim>1</dim>
					<dim>1</dim>
				</port>
			</output>
		</layer>
		<layer id="168" name="batch_norm_53.tmp_3" type="Add" version="opset1">
			<data auto_broadcast="numpy"/>
			<rt_info>
				<attribute name="fused_names" version="0" value="batch_norm_53.b_0, batch_norm_53.tmp_3, batch_norm_53.w_0, batch_norm_53.w_1, batch_norm_53.w_2"/>
			</rt_info>
			<input>
				<port id="0" precision="FP32">
					<dim>-1</dim>
					<dim>512</dim>
					<dim>2</dim>
					<dim>-1</dim>
				</port>
				<port id="1" precision="FP32">
					<dim>1</dim>
					<dim>512</dim>
					<dim>1</dim>
					<dim>1</dim>
				</port>
			</input>
			<output>
				<port id="2" precision="FP32" names="batch_norm_53.tmp_3">
					<dim>-1</dim>
					<dim>512</dim>
					<dim>2</dim>
					<dim>-1</dim>
				</port>
			</output>
		</layer>
		<layer id="169" name="HSwish_5258" type="HSwish" version="opset4">
			<rt_info>
				<attribute name="fused_names" version="0" value="Add_30, Clip_26, Mul_28"/>
			</rt_info>
			<input>
				<port id="0" precision="FP32">
					<dim>-1</dim>
					<dim>512</dim>
					<dim>2</dim>
					<dim>-1</dim>
				</port>
			</input>
			<output>
				<port id="1" precision="FP32">
					<dim>-1</dim>
					<dim>512</dim>
					<dim>2</dim>
					<dim>-1</dim>
				</port>
			</output>
		</layer>
		<layer id="170" name="Constant_10888" type="Const" version="opset1">
			<data element_type="f32" shape="1, 1, 1, 1" offset="1753344" size="4"/>
			<output>
				<port id="0" precision="FP32">
					<dim>1</dim>
					<dim>1</dim>
					<dim>1</dim>
					<dim>1</dim>
				</port>
			</output>
		</layer>
		<layer id="171" name="batch_norm_53.tmp_4" type="Multiply" version="opset1">
			<data auto_broadcast="numpy"/>
			<rt_info>
				<attribute name="fused_names" version="0" value="Add_30, Clip_26, Constant_56, Mul_28, batch_norm_53.tmp_4"/>
			</rt_info>
			<input>
				<port id="0" precision="FP32">
					<dim>-1</dim>
					<dim>512</dim>
					<dim>2</dim>
					<dim>-1</dim>
				</port>
				<port id="1" precision="FP32">
					<dim>1</dim>
					<dim>1</dim>
					<dim>1</dim>
					<dim>1</dim>
				</port>
			</input>
			<output>
				<port id="2" precision="FP32" names="batch_norm_53.tmp_4">
					<dim>-1</dim>
					<dim>512</dim>
					<dim>2</dim>
					<dim>-1</dim>
				</port>
			</output>
		</layer>
		<layer id="172" name="pool2d_5.tmp_0_clone_0" type="AvgPool" version="opset1">
			<data kernel="2, 2" strides="2, 2" pads_begin="0, 0" pads_end="0, 0" exclude-pad="true" auto_pad="explicit" rounding_type="floor"/>
			<rt_info>
				<attribute name="fused_names" version="0" value="pool2d_5.tmp_0_clone_0"/>
			</rt_info>
			<input>
				<port id="0" precision="FP32">
					<dim>-1</dim>
					<dim>512</dim>
					<dim>2</dim>
					<dim>-1</dim>
				</port>
			</input>
			<output>
				<port id="1" precision="FP32" names="pool2d_5.tmp_0,pool2d_5.tmp_0_clone_0">
					<dim>-1</dim>
					<dim>512</dim>
					<dim>1</dim>
					<dim>-1</dim>
				</port>
			</output>
		</layer>
		<layer id="173" name="Multiply_10405" type="Const" version="opset1">
			<data element_type="f32" shape="64, 512, 3, 3" offset="4042780" size="1179648"/>
			<output>
				<port id="0" precision="FP32">
					<dim>64</dim>
					<dim>512</dim>
					<dim>3</dim>
					<dim>3</dim>
				</port>
			</output>
		</layer>
		<layer id="174" name="Multiply_9989" type="Convolution" version="opset1">
			<data strides="1, 1" dilations="1, 1" pads_begin="1, 1" pads_end="1, 1" auto_pad="explicit"/>
			<rt_info>
				<attribute name="fused_names" version="0" value="batch_norm2d_5.b_0, batch_norm2d_5.w_0, batch_norm2d_5.w_1, batch_norm2d_5.w_2, batch_norm_59.tmp_2, conv2d_115.tmp_0"/>
			</rt_info>
			<input>
				<port id="0" precision="FP32">
					<dim>-1</dim>
					<dim>512</dim>
					<dim>1</dim>
					<dim>-1</dim>
				</port>
				<port id="1" precision="FP32">
					<dim>64</dim>
					<dim>512</dim>
					<dim>3</dim>
					<dim>3</dim>
				</port>
			</input>
			<output>
				<port id="2" precision="FP32">
					<dim>-1</dim>
					<dim>64</dim>
					<dim>1</dim>
					<dim>-1</dim>
				</port>
			</output>
		</layer>
		<layer id="175" name="Constant_9994" type="Const" version="opset1">
			<data element_type="f32" shape="1, 64, 1, 1" offset="5222428" size="256"/>
			<output>
				<port id="0" precision="FP32">
					<dim>1</dim>
					<dim>64</dim>
					<dim>1</dim>
					<dim>1</dim>
				</port>
			</output>
		</layer>
		<layer id="176" name="batch_norm_59.tmp_2" type="Add" version="opset1">
			<data auto_broadcast="numpy"/>
			<rt_info>
				<attribute name="fused_names" version="0" value="batch_norm2d_5.b_0, batch_norm2d_5.w_0, batch_norm2d_5.w_1, batch_norm2d_5.w_2, batch_norm_59.tmp_2"/>
			</rt_info>
			<input>
				<port id="0" precision="FP32">
					<dim>-1</dim>
					<dim>64</dim>
					<dim>1</dim>
					<dim>-1</dim>
				</port>
				<port id="1" precision="FP32">
					<dim>1</dim>
					<dim>64</dim>
					<dim>1</dim>
					<dim>1</dim>
				</port>
			</input>
			<output>
				<port id="2" precision="FP32" names="batch_norm_59.tmp_2">
					<dim>-1</dim>
					<dim>64</dim>
					<dim>1</dim>
					<dim>-1</dim>
				</port>
			</output>
		</layer>
		<layer id="177" name="swish_21.tmp_0" type="Swish" version="opset4">
			<rt_info>
				<attribute name="fused_names" version="0" value="Sigmoid_0, swish_21.tmp_0"/>
			</rt_info>
			<input>
				<port id="0" precision="FP32">
					<dim>-1</dim>
					<dim>64</dim>
					<dim>1</dim>
					<dim>-1</dim>
				</port>
			</input>
			<output>
				<port id="1" precision="FP32" names="swish_21.tmp_0">
					<dim>-1</dim>
					<dim>64</dim>
					<dim>1</dim>
					<dim>-1</dim>
				</port>
			</output>
		</layer>
		<layer id="178" name="Multiply_10414" type="Const" version="opset1">
			<data element_type="f32" shape="120, 64, 1, 1" offset="5222684" size="30720"/>
			<output>
				<port id="0" precision="FP32">
					<dim>120</dim>
					<dim>64</dim>
					<dim>1</dim>
					<dim>1</dim>
				</port>
			</output>
		</layer>
		<layer id="179" name="Multiply_9996" type="Convolution" version="opset1">
			<data strides="1, 1" dilations="1, 1" pads_begin="0, 0" pads_end="0, 0" auto_pad="explicit"/>
			<rt_info>
				<attribute name="fused_names" version="0" value="batch_norm2d_6.b_0, batch_norm2d_6.w_0, batch_norm2d_6.w_1, batch_norm2d_6.w_2, batch_norm_60.tmp_2, conv2d_116.tmp_0"/>
			</rt_info>
			<input>
				<port id="0" precision="FP32">
					<dim>-1</dim>
					<dim>64</dim>
					<dim>1</dim>
					<dim>-1</dim>
				</port>
				<port id="1" precision="FP32">
					<dim>120</dim>
					<dim>64</dim>
					<dim>1</dim>
					<dim>1</dim>
				</port>
			</input>
			<output>
				<port id="2" precision="FP32">
					<dim>-1</dim>
					<dim>120</dim>
					<dim>1</dim>
					<dim>-1</dim>
				</port>
			</output>
		</layer>
		<layer id="180" name="Constant_10001" type="Const" version="opset1">
			<data element_type="f32" shape="1, 120, 1, 1" offset="5253404" size="480"/>
			<output>
				<port id="0" precision="FP32">
					<dim>1</dim>
					<dim>120</dim>
					<dim>1</dim>
					<dim>1</dim>
				</port>
			</output>
		</layer>
		<layer id="181" name="batch_norm_60.tmp_2" type="Add" version="opset1">
			<data auto_broadcast="numpy"/>
			<rt_info>
				<attribute name="fused_names" version="0" value="batch_norm2d_6.b_0, batch_norm2d_6.w_0, batch_norm2d_6.w_1, batch_norm2d_6.w_2, batch_norm_60.tmp_2"/>
			</rt_info>
			<input>
				<port id="0" precision="FP32">
					<dim>-1</dim>
					<dim>120</dim>
					<dim>1</dim>
					<dim>-1</dim>
				</port>
				<port id="1" precision="FP32">
					<dim>1</dim>
					<dim>120</dim>
					<dim>1</dim>
					<dim>1</dim>
				</port>
			</input>
			<output>
				<port id="2" precision="FP32" names="batch_norm_60.tmp_2">
					<dim>-1</dim>
					<dim>120</dim>
					<dim>1</dim>
					<dim>-1</dim>
				</port>
			</output>
		</layer>
		<layer id="182" name="swish_22.tmp_0" type="Swish" version="opset4">
			<rt_info>
				<attribute name="fused_names" version="0" value="Sigmoid_1, swish_22.tmp_0"/>
			</rt_info>
			<input>
				<port id="0" precision="FP32">
					<dim>-1</dim>
					<dim>120</dim>
					<dim>1</dim>
					<dim>-1</dim>
				</port>
			</input>
			<output>
				<port id="1" precision="FP32" names="swish_22.tmp_0">
					<dim>-1</dim>
					<dim>120</dim>
					<dim>1</dim>
					<dim>-1</dim>
				</port>
			</output>
		</layer>
		<layer id="183" name="Shape_0" type="ShapeOf" version="opset3">
			<data output_type="i64"/>
			<rt_info>
				<attribute name="fused_names" version="0" value="Shape_0"/>
			</rt_info>
			<input>
				<port id="0" precision="FP32">
					<dim>-1</dim>
					<dim>120</dim>
					<dim>1</dim>
					<dim>-1</dim>
				</port>
			</input>
			<output>
				<port id="1" precision="I64" names="Shape_0">
					<dim>4</dim>
				</port>
			</output>
		</layer>
		<layer id="184" name="Constant_58" type="Const" version="opset1">
			<data element_type="i64" shape="1" offset="5253884" size="8"/>
			<rt_info>
				<attribute name="fused_names" version="0" value="Broadcast_1520, Constant_58, Constant_59, Constant_60, ShapeOf_1519, Slice_0"/>
			</rt_info>
			<output>
				<port id="0" precision="I64" names="Constant_58">
					<dim>1</dim>
				</port>
			</output>
		</layer>
		<layer id="185" name="Constant_59" type="Const" version="opset1">
			<data element_type="i64" shape="1" offset="5253892" size="8"/>
			<rt_info>
				<attribute name="fused_names" version="0" value="Broadcast_1520, Constant_58, Constant_59, Constant_60, ShapeOf_1519, Slice_0"/>
			</rt_info>
			<output>
				<port id="0" precision="I64" names="Constant_59">
					<dim>1</dim>
				</port>
			</output>
		</layer>
		<layer id="186" name="Broadcast_1520" type="Const" version="opset1">
			<data element_type="i64" shape="1" offset="5253900" size="8"/>
			<rt_info>
				<attribute name="fused_names" version="0" value="Broadcast_1520, Constant_58, Constant_59, Constant_60, ShapeOf_1519, Slice_0"/>
			</rt_info>
			<output>
				<port id="0" precision="I64">
					<dim>1</dim>
				</port>
			</output>
		</layer>
		<layer id="187" name="Slice_0" type="StridedSlice" version="opset1">
			<data begin_mask="0" end_mask="0" new_axis_mask="" shrink_axis_mask="" ellipsis_mask=""/>
			<rt_info>
				<attribute name="fused_names" version="0" value="Broadcast_1520, Constant_58, Constant_59, Constant_60, ShapeOf_1519, Slice_0"/>
			</rt_info>
			<input>
				<port id="0" precision="I64">
					<dim>4</dim>
				</port>
				<port id="1" precision="I64">
					<dim>1</dim>
				</port>
				<port id="2" precision="I64">
					<dim>1</dim>
				</port>
				<port id="3" precision="I64">
					<dim>1</dim>
				</port>
			</input>
			<output>
				<port id="4" precision="I64" names="Slice_0">
					<dim>2</dim>
				</port>
			</output>
		</layer>
		<layer id="188" name="Constant_61" type="Const" version="opset1">
			<data element_type="i64" shape="1" offset="5253908" size="8"/>
			<rt_info>
				<attribute name="fused_names" version="0" value="Constant_61"/>
			</rt_info>
			<output>
				<port id="0" precision="I64" names="Constant_61">
					<dim>1</dim>
				</port>
			</output>
		</layer>
		<layer id="189" name="Concat_0" type="Concat" version="opset1">
			<data axis="0"/>
			<rt_info>
				<attribute name="fused_names" version="0" value="Concat_0, Constant_61"/>
			</rt_info>
			<input>
				<port id="0" precision="I64">
					<dim>2</dim>
				</port>
				<port id="1" precision="I64">
					<dim>1</dim>
				</port>
			</input>
			<output>
				<port id="2" precision="I64" names="Concat_0">
					<dim>3</dim>
				</port>
			</output>
		</layer>
		<layer id="190" name="flatten_1.tmp_0" type="Reshape" version="opset1">
			<data special_zero="true"/>
			<rt_info>
				<attribute name="fused_names" version="0" value="flatten_1.tmp_0"/>
			</rt_info>
			<input>
				<port id="0" precision="FP32">
					<dim>-1</dim>
					<dim>120</dim>
					<dim>1</dim>
					<dim>-1</dim>
				</port>
				<port id="1" precision="I64">
					<dim>3</dim>
				</port>
			</input>
			<output>
				<port id="2" precision="FP32" names="flatten_1.tmp_0">
					<dim>-1</dim>
					<dim>120</dim>
					<dim>-1</dim>
				</port>
			</output>
		</layer>
		<layer id="191" name="Constant_1615" type="Const" version="opset1">
			<data element_type="i64" shape="3" offset="5253916" size="24"/>
			<rt_info>
				<attribute name="fused_names" version="0" value="Constant_1615"/>
			</rt_info>
			<output>
				<port id="0" precision="I64">
					<dim>3</dim>
				</port>
			</output>
		</layer>
		<layer id="192" name="transpose_9.tmp_0" type="Transpose" version="opset1">
			<rt_info>
				<attribute name="fused_names" version="0" value="transpose_9.tmp_0"/>
			</rt_info>
			<input>
				<port id="0" precision="FP32">
					<dim>-1</dim>
					<dim>120</dim>
					<dim>-1</dim>
				</port>
				<port id="1" precision="I64">
					<dim>3</dim>
				</port>
			</input>
			<output>
				<port id="2" precision="FP32" names="transpose_9.tmp_0">
					<dim>-1</dim>
					<dim>-1</dim>
					<dim>120</dim>
				</port>
			</output>
		</layer>
		<layer id="193" name="Constant_1619" type="Const" version="opset1">
			<data element_type="i64" shape="1" offset="5253892" size="8"/>
			<rt_info>
				<attribute name="fused_names" version="0" value="Constant_1619"/>
			</rt_info>
			<output>
				<port id="0" precision="I64">
					<dim>1</dim>
				</port>
			</output>
		</layer>
		<layer id="194" name="Div_27" type="MVN" version="opset6">
			<data eps="9.9999997473787516e-06" normalize_variance="true" eps_mode="INSIDE_SQRT"/>
			<rt_info>
				<attribute name="fused_names" version="0" value="Add_31, Div_27, Pow_0, ReduceMean_0, ReduceMean_1, Sqrt_0, Sub_0"/>
			</rt_info>
			<input>
				<port id="0" precision="FP32">
					<dim>-1</dim>
					<dim>-1</dim>
					<dim>120</dim>
				</port>
				<port id="1" precision="I64">
					<dim>1</dim>
				</port>
			</input>
			<output>
				<port id="2" precision="FP32" names="Div_27">
					<dim>-1</dim>
					<dim>-1</dim>
					<dim>120</dim>
				</port>
			</output>
		</layer>
		<layer id="195" name="Constant_10889" type="Const" version="opset1">
			<data element_type="f32" shape="1, 1, 120" offset="5253940" size="480"/>
			<output>
				<port id="0" precision="FP32">
					<dim>1</dim>
					<dim>1</dim>
					<dim>120</dim>
				</port>
			</output>
		</layer>
		<layer id="196" name="Mul_31" type="Multiply" version="opset1">
			<data auto_broadcast="numpy"/>
			<rt_info>
				<attribute name="fused_names" version="0" value="Mul_31, Reshape_5"/>
			</rt_info>
			<input>
				<port id="0" precision="FP32">
					<dim>-1</dim>
					<dim>-1</dim>
					<dim>120</dim>
				</port>
				<port id="1" precision="FP32">
					<dim>1</dim>
					<dim>1</dim>
					<dim>120</dim>
				</port>
			</input>
			<output>
				<port id="2" precision="FP32" names="Mul_31">
					<dim>-1</dim>
					<dim>-1</dim>
					<dim>120</dim>
				</port>
			</output>
		</layer>
		<layer id="197" name="Constant_10890" type="Const" version="opset1">
			<data element_type="f32" shape="1, 1, 120" offset="5254420" size="480"/>
			<output>
				<port id="0" precision="FP32">
					<dim>1</dim>
					<dim>1</dim>
					<dim>120</dim>
				</port>
			</output>
		</layer>
		<layer id="198" name="layer_norm_15.tmp_2" type="Add" version="opset1">
			<data auto_broadcast="numpy"/>
			<rt_info>
				<attribute name="fused_names" version="0" value="Reshape_6, layer_norm_15.tmp_2"/>
			</rt_info>
			<input>
				<port id="0" precision="FP32">
					<dim>-1</dim>
					<dim>-1</dim>
					<dim>120</dim>
				</port>
				<port id="1" precision="FP32">
					<dim>1</dim>
					<dim>1</dim>
					<dim>120</dim>
				</port>
			</input>
			<output>
				<port id="2" precision="FP32" names="layer_norm_15.tmp_2">
					<dim>-1</dim>
					<dim>-1</dim>
					<dim>120</dim>
				</port>
			</output>
		</layer>
		<layer id="199" name="Constant_5269" type="Const" version="opset1">
			<data element_type="f32" shape="360, 120" offset="5254900" size="172800"/>
			<rt_info>
				<attribute name="fused_names" version="0" value="linear_13.w_0, linear_35.tmp_0"/>
			</rt_info>
			<output>
				<port id="0" precision="FP32">
					<dim>360</dim>
					<dim>120</dim>
				</port>
			</output>
		</layer>
		<layer id="200" name="linear_35.tmp_0" type="MatMul" version="opset1">
			<data transpose_a="false" transpose_b="true"/>
			<rt_info>
				<attribute name="fused_names" version="0" value="linear_13.w_0, linear_35.tmp_0"/>
			</rt_info>
			<input>
				<port id="0" precision="FP32">
					<dim>-1</dim>
					<dim>-1</dim>
					<dim>120</dim>
				</port>
				<port id="1" precision="FP32">
					<dim>360</dim>
					<dim>120</dim>
				</port>
			</input>
			<output>
				<port id="2" precision="FP32" names="linear_35.tmp_0">
					<dim>-1</dim>
					<dim>-1</dim>
					<dim>360</dim>
				</port>
			</output>
		</layer>
		<layer id="201" name="Constant_10891" type="Const" version="opset1">
			<data element_type="f32" shape="1, 1, 360" offset="5427700" size="1440"/>
			<output>
				<port id="0" precision="FP32">
					<dim>1</dim>
					<dim>1</dim>
					<dim>360</dim>
				</port>
			</output>
		</layer>
		<layer id="202" name="linear_35.tmp_1" type="Add" version="opset1">
			<data auto_broadcast="numpy"/>
			<rt_info>
				<attribute name="fused_names" version="0" value="linear_35.tmp_1"/>
			</rt_info>
			<input>
				<port id="0" precision="FP32">
					<dim>-1</dim>
					<dim>-1</dim>
					<dim>360</dim>
				</port>
				<port id="1" precision="FP32">
					<dim>1</dim>
					<dim>1</dim>
					<dim>360</dim>
				</port>
			</input>
			<output>
				<port id="2" precision="FP32" names="linear_35.tmp_1">
					<dim>-1</dim>
					<dim>-1</dim>
					<dim>360</dim>
				</port>
			</output>
		</layer>
		<layer id="203" name="Constant_68" type="Const" version="opset1">
			<data element_type="i64" shape="5" offset="5429140" size="40"/>
			<rt_info>
				<attribute name="fused_names" version="0" value="Constant_68"/>
			</rt_info>
			<output>
				<port id="0" precision="I64" names="Constant_68">
					<dim>5</dim>
				</port>
			</output>
		</layer>
		<layer id="204" name="reshape2_5.tmp_0" type="Reshape" version="opset1">
			<data special_zero="true"/>
			<rt_info>
				<attribute name="fused_names" version="0" value="reshape2_5.tmp_0"/>
			</rt_info>
			<input>
				<port id="0" precision="FP32">
					<dim>-1</dim>
					<dim>-1</dim>
					<dim>360</dim>
				</port>
				<port id="1" precision="I64">
					<dim>5</dim>
				</port>
			</input>
			<output>
				<port id="2" precision="FP32" names="reshape2_5.tmp_0">
					<dim>-1</dim>
					<dim>-1</dim>
					<dim>3</dim>
					<dim>8</dim>
					<dim>15</dim>
				</port>
			</output>
		</layer>
		<layer id="205" name="Constant_1672" type="Const" version="opset1">
			<data element_type="i64" shape="5" offset="5429180" size="40"/>
			<rt_info>
				<attribute name="fused_names" version="0" value="Constant_1672"/>
			</rt_info>
			<output>
				<port id="0" precision="I64">
					<dim>5</dim>
				</port>
			</output>
		</layer>
		<layer id="206" name="transpose_10.tmp_0" type="Transpose" version="opset1">
			<rt_info>
				<attribute name="fused_names" version="0" value="transpose_10.tmp_0"/>
			</rt_info>
			<input>
				<port id="0" precision="FP32">
					<dim>-1</dim>
					<dim>-1</dim>
					<dim>3</dim>
					<dim>8</dim>
					<dim>15</dim>
				</port>
				<port id="1" precision="I64">
					<dim>5</dim>
				</port>
			</input>
			<output>
				<port id="2" precision="FP32" names="transpose_10.tmp_0">
					<dim>3</dim>
					<dim>-1</dim>
					<dim>8</dim>
					<dim>-1</dim>
					<dim>15</dim>
				</port>
			</output>
		</layer>
		<layer id="207" name="Constant_69" type="Const" version="opset1">
			<data element_type="i64" shape="1" offset="5253884" size="8"/>
			<rt_info>
				<attribute name="fused_names" version="0" value="Slice_2"/>
			</rt_info>
			<output>
				<port id="0" precision="I64" names="Constant_69">
					<dim>1</dim>
				</port>
			</output>
		</layer>
		<layer id="208" name="Constant_70" type="Const" version="opset1">
			<data element_type="i64" shape="1" offset="5253900" size="8"/>
			<rt_info>
				<attribute name="fused_names" version="0" value="Slice_2"/>
			</rt_info>
			<output>
				<port id="0" precision="I64" names="Constant_70">
					<dim>1</dim>
				</port>
			</output>
		</layer>
		<layer id="209" name="Constant_71" type="Const" version="opset1">
			<data element_type="i64" shape="1" offset="5253900" size="8"/>
			<rt_info>
				<attribute name="fused_names" version="0" value="Slice_2"/>
			</rt_info>
			<output>
				<port id="0" precision="I64" names="Constant_71">
					<dim>1</dim>
				</port>
			</output>
		</layer>
		<layer id="210" name="Slice_2" type="StridedSlice" version="opset1">
			<data begin_mask="0" end_mask="0" new_axis_mask="" shrink_axis_mask="" ellipsis_mask=""/>
			<rt_info>
				<attribute name="fused_names" version="0" value="Slice_2"/>
			</rt_info>
			<input>
				<port id="0" precision="FP32">
					<dim>3</dim>
					<dim>-1</dim>
					<dim>8</dim>
					<dim>-1</dim>
					<dim>15</dim>
				</port>
				<port id="1" precision="I64">
					<dim>1</dim>
				</port>
				<port id="2" precision="I64">
					<dim>1</dim>
				</port>
				<port id="3" precision="I64">
					<dim>1</dim>
				</port>
			</input>
			<output>
				<port id="4" precision="FP32" names="Slice_2">
					<dim>1</dim>
					<dim>-1</dim>
					<dim>8</dim>
					<dim>-1</dim>
					<dim>15</dim>
				</port>
			</output>
		</layer>
		<layer id="211" name="Constant_1679" type="Const" version="opset1">
			<data element_type="u64" shape="1" offset="5253884" size="8"/>
			<rt_info>
				<attribute name="fused_names" version="0" value="Constant_1679"/>
			</rt_info>
			<output>
				<port id="0" precision="U64">
					<dim>1</dim>
				</port>
			</output>
		</layer>
		<layer id="212" name="transpose_10.tmp_0_slice_0" type="Squeeze" version="opset1">
			<rt_info>
				<attribute name="fused_names" version="0" value="transpose_10.tmp_0_slice_0"/>
			</rt_info>
			<input>
				<port id="0" precision="FP32">
					<dim>1</dim>
					<dim>-1</dim>
					<dim>8</dim>
					<dim>-1</dim>
					<dim>15</dim>
				</port>
				<port id="1" precision="U64">
					<dim>1</dim>
				</port>
			</input>
			<output>
				<port id="2" precision="FP32" names="transpose_10.tmp_0_slice_0">
					<dim>-1</dim>
					<dim>8</dim>
					<dim>-1</dim>
					<dim>15</dim>
				</port>
			</output>
		</layer>
		<layer id="213" name="Constant_10892" type="Const" version="opset1">
			<data element_type="f32" shape="1, 1, 1, 1" offset="5429220" size="4"/>
			<output>
				<port id="0" precision="FP32">
					<dim>1</dim>
					<dim>1</dim>
					<dim>1</dim>
					<dim>1</dim>
				</port>
			</output>
		</layer>
		<layer id="214" name="Mul_32" type="Multiply" version="opset1">
			<data auto_broadcast="numpy"/>
			<rt_info>
				<attribute name="fused_names" version="0" value="Mul_32, tmp_6"/>
			</rt_info>
			<input>
				<port id="0" precision="FP32">
					<dim>-1</dim>
					<dim>8</dim>
					<dim>-1</dim>
					<dim>15</dim>
				</port>
				<port id="1" precision="FP32">
					<dim>1</dim>
					<dim>1</dim>
					<dim>1</dim>
					<dim>1</dim>
				</port>
			</input>
			<output>
				<port id="2" precision="FP32" names="Mul_32,tmp_6">
					<dim>-1</dim>
					<dim>8</dim>
					<dim>-1</dim>
					<dim>15</dim>
				</port>
			</output>
		</layer>
		<layer id="215" name="Constant_75" type="Const" version="opset1">
			<data element_type="i64" shape="1" offset="5253900" size="8"/>
			<rt_info>
				<attribute name="fused_names" version="0" value="Slice_3"/>
			</rt_info>
			<output>
				<port id="0" precision="I64" names="Constant_75">
					<dim>1</dim>
				</port>
			</output>
		</layer>
		<layer id="216" name="Constant_76" type="Const" version="opset1">
			<data element_type="i64" shape="1" offset="5253892" size="8"/>
			<rt_info>
				<attribute name="fused_names" version="0" value="Slice_3"/>
			</rt_info>
			<output>
				<port id="0" precision="I64" names="Constant_76">
					<dim>1</dim>
				</port>
			</output>
		</layer>
		<layer id="217" name="Constant_77" type="Const" version="opset1">
			<data element_type="i64" shape="1" offset="5253900" size="8"/>
			<rt_info>
				<attribute name="fused_names" version="0" value="Slice_3"/>
			</rt_info>
			<output>
				<port id="0" precision="I64" names="Constant_77">
					<dim>1</dim>
				</port>
			</output>
		</layer>
		<layer id="218" name="Slice_3" type="StridedSlice" version="opset1">
			<data begin_mask="0" end_mask="0" new_axis_mask="" shrink_axis_mask="" ellipsis_mask=""/>
			<rt_info>
				<attribute name="fused_names" version="0" value="Slice_3"/>
			</rt_info>
			<input>
				<port id="0" precision="FP32">
					<dim>3</dim>
					<dim>-1</dim>
					<dim>8</dim>
					<dim>-1</dim>
					<dim>15</dim>
				</port>
				<port id="1" precision="I64">
					<dim>1</dim>
				</port>
				<port id="2" precision="I64">
					<dim>1</dim>
				</port>
				<port id="3" precision="I64">
					<dim>1</dim>
				</port>
			</input>
			<output>
				<port id="4" precision="FP32" names="Slice_3">
					<dim>1</dim>
					<dim>-1</dim>
					<dim>8</dim>
					<dim>-1</dim>
					<dim>15</dim>
				</port>
			</output>
		</layer>
		<layer id="219" name="Constant_1690" type="Const" version="opset1">
			<data element_type="u64" shape="1" offset="5253884" size="8"/>
			<rt_info>
				<attribute name="fused_names" version="0" value="Constant_1690"/>
			</rt_info>
			<output>
				<port id="0" precision="U64">
					<dim>1</dim>
				</port>
			</output>
		</layer>
		<layer id="220" name="transpose_10.tmp_0_slice_1" type="Squeeze" version="opset1">
			<rt_info>
				<attribute name="fused_names" version="0" value="transpose_10.tmp_0_slice_1"/>
			</rt_info>
			<input>
				<port id="0" precision="FP32">
					<dim>1</dim>
					<dim>-1</dim>
					<dim>8</dim>
					<dim>-1</dim>
					<dim>15</dim>
				</port>
				<port id="1" precision="U64">
					<dim>1</dim>
				</port>
			</input>
			<output>
				<port id="2" precision="FP32" names="transpose_10.tmp_0_slice_1">
					<dim>-1</dim>
					<dim>8</dim>
					<dim>-1</dim>
					<dim>15</dim>
				</port>
			</output>
		</layer>
		<layer id="221" name="Constant_1699" type="Const" version="opset1">
			<data element_type="i64" shape="4" offset="5429224" size="32"/>
			<rt_info>
				<attribute name="fused_names" version="0" value="Constant_1699"/>
			</rt_info>
			<output>
				<port id="0" precision="I64">
					<dim>4</dim>
				</port>
			</output>
		</layer>
		<layer id="222" name="transpose_11.tmp_0" type="Transpose" version="opset1">
			<rt_info>
				<attribute name="fused_names" version="0" value="transpose_11.tmp_0"/>
			</rt_info>
			<input>
				<port id="0" precision="FP32">
					<dim>-1</dim>
					<dim>8</dim>
					<dim>-1</dim>
					<dim>15</dim>
				</port>
				<port id="1" precision="I64">
					<dim>4</dim>
				</port>
			</input>
			<output>
				<port id="2" precision="FP32" names="transpose_11.tmp_0">
					<dim>-1</dim>
					<dim>8</dim>
					<dim>15</dim>
					<dim>-1</dim>
				</port>
			</output>
		</layer>
		<layer id="223" name="matmul_v2_4.tmp_0" type="MatMul" version="opset1">
			<data transpose_a="false" transpose_b="false"/>
			<rt_info>
				<attribute name="fused_names" version="0" value="matmul_v2_4.tmp_0"/>
			</rt_info>
			<input>
				<port id="0" precision="FP32">
					<dim>-1</dim>
					<dim>8</dim>
					<dim>-1</dim>
					<dim>15</dim>
				</port>
				<port id="1" precision="FP32">
					<dim>-1</dim>
					<dim>8</dim>
					<dim>15</dim>
					<dim>-1</dim>
				</port>
			</input>
			<output>
				<port id="2" precision="FP32" names="matmul_v2_4.tmp_0">
					<dim>-1</dim>
					<dim>8</dim>
					<dim>-1</dim>
					<dim>-1</dim>
				</port>
			</output>
		</layer>
		<layer id="224" name="ShapeOf_1702" type="ShapeOf" version="opset1">
			<rt_info>
				<attribute name="fused_names" version="0" value="ShapeOf_1702, ShapeOf_1776"/>
			</rt_info>
			<input>
				<port id="0" precision="FP32">
					<dim>-1</dim>
					<dim>8</dim>
					<dim>-1</dim>
					<dim>-1</dim>
				</port>
			</input>
			<output>
				<port id="1" precision="I64">
					<dim>4</dim>
				</port>
			</output>
		</layer>
		<layer id="225" name="Constant_1705" type="Const" version="opset1">
			<data element_type="i64" shape="1" offset="5253884" size="8"/>
			<rt_info>
				<attribute name="fused_names" version="0" value="Constant_1705"/>
			</rt_info>
			<output>
				<port id="0" precision="I64">
					<dim>1</dim>
				</port>
			</output>
		</layer>
		<layer id="226" name="Constant_1704" type="Const" version="opset1">
			<data element_type="i64" shape="1" offset="5429256" size="8"/>
			<rt_info>
				<attribute name="fused_names" version="0" value="Constant_1704"/>
			</rt_info>
			<output>
				<port id="0" precision="I64">
					<dim>1</dim>
				</port>
			</output>
		</layer>
		<layer id="227" name="Constant_1706" type="Const" version="opset1">
			<data element_type="i64" shape="1" offset="5253900" size="8"/>
			<rt_info>
				<attribute name="fused_names" version="0" value="Constant_1706"/>
			</rt_info>
			<output>
				<port id="0" precision="I64">
					<dim>1</dim>
				</port>
			</output>
		</layer>
		<layer id="228" name="StridedSlice_1707" type="StridedSlice" version="opset1">
			<data begin_mask="0" end_mask="0" new_axis_mask="" shrink_axis_mask="" ellipsis_mask=""/>
			<rt_info>
				<attribute name="fused_names" version="0" value="Constant_1704, Constant_1705, Constant_1706, StridedSlice_1707"/>
			</rt_info>
			<input>
				<port id="0" precision="I64">
					<dim>4</dim>
				</port>
				<port id="1" precision="I64">
					<dim>1</dim>
				</port>
				<port id="2" precision="I64">
					<dim>1</dim>
				</port>
				<port id="3" precision="I64">
					<dim>1</dim>
				</port>
			</input>
			<output>
				<port id="4" precision="I64">
					<dim>3</dim>
				</port>
			</output>
		</layer>
		<layer id="229" name="Constant_1708" type="Const" version="opset1">
			<data element_type="i64" shape="" offset="5253884" size="8"/>
			<rt_info>
				<attribute name="fused_names" version="0" value="Constant_1708"/>
			</rt_info>
			<output>
				<port id="0" precision="I64"/>
			</output>
		</layer>
		<layer id="230" name="ReduceProd_1709" type="ReduceProd" version="opset1">
			<data keep_dims="true"/>
			<rt_info>
				<attribute name="fused_names" version="0" value="Constant_1708, ReduceProd_1709"/>
			</rt_info>
			<input>
				<port id="0" precision="I64">
					<dim>3</dim>
				</port>
				<port id="1" precision="I64"/>
			</input>
			<output>
				<port id="2" precision="I64">
					<dim>1</dim>
				</port>
			</output>
		</layer>
		<layer id="231" name="Constant_1710" type="Const" version="opset1">
			<data element_type="i64" shape="1" offset="5253908" size="8"/>
			<rt_info>
				<attribute name="fused_names" version="0" value="Constant_1710"/>
			</rt_info>
			<output>
				<port id="0" precision="I64">
					<dim>1</dim>
				</port>
			</output>
		</layer>
		<layer id="232" name="Concat_1711" type="Concat" version="opset1">
			<data axis="0"/>
			<rt_info>
				<attribute name="fused_names" version="0" value="Concat_1711, Constant_1710"/>
			</rt_info>
			<input>
				<port id="0" precision="I64">
					<dim>1</dim>
				</port>
				<port id="1" precision="I64">
					<dim>1</dim>
				</port>
			</input>
			<output>
				<port id="2" precision="I64">
					<dim>2</dim>
				</port>
			</output>
		</layer>
		<layer id="233" name="Reshape_1712" type="Reshape" version="opset1">
			<data special_zero="true"/>
			<rt_info>
				<attribute name="fused_names" version="0" value="Reshape_1712"/>
			</rt_info>
			<input>
				<port id="0" precision="FP32">
					<dim>-1</dim>
					<dim>8</dim>
					<dim>-1</dim>
					<dim>-1</dim>
				</port>
				<port id="1" precision="I64">
					<dim>2</dim>
				</port>
			</input>
			<output>
				<port id="2" precision="FP32">
					<dim>-1</dim>
					<dim>-1</dim>
				</port>
			</output>
		</layer>
		<layer id="234" name="Softmax_1775" type="SoftMax" version="opset8">
			<data axis="1"/>
			<rt_info>
				<attribute name="fused_names" version="0" value="Softmax_1775"/>
			</rt_info>
			<input>
				<port id="0" precision="FP32">
					<dim>-1</dim>
					<dim>-1</dim>
				</port>
			</input>
			<output>
				<port id="1" precision="FP32">
					<dim>-1</dim>
					<dim>-1</dim>
				</port>
			</output>
		</layer>
		<layer id="235" name="dropout_22.tmp_0" type="Reshape" version="opset1">
			<data special_zero="false"/>
			<rt_info>
				<attribute name="fused_names" version="0" value="dropout_22.tmp_0"/>
			</rt_info>
			<input>
				<port id="0" precision="FP32">
					<dim>-1</dim>
					<dim>-1</dim>
				</port>
				<port id="1" precision="I64">
					<dim>4</dim>
				</port>
			</input>
			<output>
				<port id="2" precision="FP32" names="dropout_22.tmp_0,softmax_3.tmp_0">
					<dim>-1</dim>
					<dim>8</dim>
					<dim>-1</dim>
					<dim>-1</dim>
				</port>
			</output>
		</layer>
		<layer id="236" name="Constant_79" type="Const" version="opset1">
			<data element_type="i64" shape="1" offset="5253892" size="8"/>
			<rt_info>
				<attribute name="fused_names" version="0" value="Slice_4"/>
			</rt_info>
			<output>
				<port id="0" precision="I64" names="Constant_79">
					<dim>1</dim>
				</port>
			</output>
		</layer>
		<layer id="237" name="Constant_80" type="Const" version="opset1">
			<data element_type="i64" shape="1" offset="5429256" size="8"/>
			<rt_info>
				<attribute name="fused_names" version="0" value="Slice_4"/>
			</rt_info>
			<output>
				<port id="0" precision="I64" names="Constant_80">
					<dim>1</dim>
				</port>
			</output>
		</layer>
		<layer id="238" name="Constant_81" type="Const" version="opset1">
			<data element_type="i64" shape="1" offset="5253900" size="8"/>
			<rt_info>
				<attribute name="fused_names" version="0" value="Slice_4"/>
			</rt_info>
			<output>
				<port id="0" precision="I64" names="Constant_81">
					<dim>1</dim>
				</port>
			</output>
		</layer>
		<layer id="239" name="Slice_4" type="StridedSlice" version="opset1">
			<data begin_mask="0" end_mask="0" new_axis_mask="" shrink_axis_mask="" ellipsis_mask=""/>
			<rt_info>
				<attribute name="fused_names" version="0" value="Slice_4"/>
			</rt_info>
			<input>
				<port id="0" precision="FP32">
					<dim>3</dim>
					<dim>-1</dim>
					<dim>8</dim>
					<dim>-1</dim>
					<dim>15</dim>
				</port>
				<port id="1" precision="I64">
					<dim>1</dim>
				</port>
				<port id="2" precision="I64">
					<dim>1</dim>
				</port>
				<port id="3" precision="I64">
					<dim>1</dim>
				</port>
			</input>
			<output>
				<port id="4" precision="FP32" names="Slice_4">
					<dim>1</dim>
					<dim>-1</dim>
					<dim>8</dim>
					<dim>-1</dim>
					<dim>15</dim>
				</port>
			</output>
		</layer>
		<layer id="240" name="Constant_1697" type="Const" version="opset1">
			<data element_type="u64" shape="1" offset="5253884" size="8"/>
			<rt_info>
				<attribute name="fused_names" version="0" value="Constant_1697"/>
			</rt_info>
			<output>
				<port id="0" precision="U64">
					<dim>1</dim>
				</port>
			</output>
		</layer>
		<layer id="241" name="transpose_10.tmp_0_slice_2" type="Squeeze" version="opset1">
			<rt_info>
				<attribute name="fused_names" version="0" value="transpose_10.tmp_0_slice_2"/>
			</rt_info>
			<input>
				<port id="0" precision="FP32">
					<dim>1</dim>
					<dim>-1</dim>
					<dim>8</dim>
					<dim>-1</dim>
					<dim>15</dim>
				</port>
				<port id="1" precision="U64">
					<dim>1</dim>
				</port>
			</input>
			<output>
				<port id="2" precision="FP32" names="transpose_10.tmp_0_slice_2">
					<dim>-1</dim>
					<dim>8</dim>
					<dim>-1</dim>
					<dim>15</dim>
				</port>
			</output>
		</layer>
		<layer id="242" name="matmul_v2_5.tmp_0" type="MatMul" version="opset1">
			<data transpose_a="false" transpose_b="false"/>
			<rt_info>
				<attribute name="fused_names" version="0" value="matmul_v2_5.tmp_0"/>
			</rt_info>
			<input>
				<port id="0" precision="FP32">
					<dim>-1</dim>
					<dim>8</dim>
					<dim>-1</dim>
					<dim>-1</dim>
				</port>
				<port id="1" precision="FP32">
					<dim>-1</dim>
					<dim>8</dim>
					<dim>-1</dim>
					<dim>15</dim>
				</port>
			</input>
			<output>
				<port id="2" precision="FP32" names="matmul_v2_5.tmp_0">
					<dim>-1</dim>
					<dim>8</dim>
					<dim>-1</dim>
					<dim>15</dim>
				</port>
			</output>
		</layer>
		<layer id="243" name="Constant_1789" type="Const" version="opset1">
			<data element_type="i64" shape="4" offset="5429264" size="32"/>
			<rt_info>
				<attribute name="fused_names" version="0" value="Constant_1789"/>
			</rt_info>
			<output>
				<port id="0" precision="I64">
					<dim>4</dim>
				</port>
			</output>
		</layer>
		<layer id="244" name="transpose_12.tmp_0" type="Transpose" version="opset1">
			<rt_info>
				<attribute name="fused_names" version="0" value="transpose_12.tmp_0"/>
			</rt_info>
			<input>
				<port id="0" precision="FP32">
					<dim>-1</dim>
					<dim>8</dim>
					<dim>-1</dim>
					<dim>15</dim>
				</port>
				<port id="1" precision="I64">
					<dim>4</dim>
				</port>
			</input>
			<output>
				<port id="2" precision="FP32" names="transpose_12.tmp_0">
					<dim>-1</dim>
					<dim>-1</dim>
					<dim>8</dim>
					<dim>15</dim>
				</port>
			</output>
		</layer>
		<layer id="245" name="Constant_83" type="Const" version="opset1">
			<data element_type="i64" shape="3" offset="5429296" size="24"/>
			<rt_info>
				<attribute name="fused_names" version="0" value="Constant_83"/>
			</rt_info>
			<output>
				<port id="0" precision="I64" names="Constant_83">
					<dim>3</dim>
				</port>
			</output>
		</layer>
		<layer id="246" name="reshape2_6.tmp_0" type="Reshape" version="opset1">
			<data special_zero="true"/>
			<rt_info>
				<attribute name="fused_names" version="0" value="reshape2_6.tmp_0"/>
			</rt_info>
			<input>
				<port id="0" precision="FP32">
					<dim>-1</dim>
					<dim>-1</dim>
					<dim>8</dim>
					<dim>15</dim>
				</port>
				<port id="1" precision="I64">
					<dim>3</dim>
				</port>
			</input>
			<output>
				<port id="2" precision="FP32" names="reshape2_6.tmp_0">
					<dim>-1</dim>
					<dim>-1</dim>
					<dim>120</dim>
				</port>
			</output>
		</layer>
		<layer id="247" name="Constant_5276" type="Const" version="opset1">
			<data element_type="f32" shape="120, 120" offset="5429320" size="57600"/>
			<rt_info>
				<attribute name="fused_names" version="0" value="linear_14.w_0, linear_36.tmp_0"/>
			</rt_info>
			<output>
				<port id="0" precision="FP32">
					<dim>120</dim>
					<dim>120</dim>
				</port>
			</output>
		</layer>
		<layer id="248" name="linear_36.tmp_0" type="MatMul" version="opset1">
			<data transpose_a="false" transpose_b="true"/>
			<rt_info>
				<attribute name="fused_names" version="0" value="linear_14.w_0, linear_36.tmp_0"/>
			</rt_info>
			<input>
				<port id="0" precision="FP32">
					<dim>-1</dim>
					<dim>-1</dim>
					<dim>120</dim>
				</port>
				<port id="1" precision="FP32">
					<dim>120</dim>
					<dim>120</dim>
				</port>
			</input>
			<output>
				<port id="2" precision="FP32" names="linear_36.tmp_0">
					<dim>-1</dim>
					<dim>-1</dim>
					<dim>120</dim>
				</port>
			</output>
		</layer>
		<layer id="249" name="Constant_10893" type="Const" version="opset1">
			<data element_type="f32" shape="1, 1, 120" offset="5486920" size="480"/>
			<output>
				<port id="0" precision="FP32">
					<dim>1</dim>
					<dim>1</dim>
					<dim>120</dim>
				</port>
			</output>
		</layer>
		<layer id="250" name="dropout_23.tmp_0" type="Add" version="opset1">
			<data auto_broadcast="numpy"/>
			<rt_info>
				<attribute name="fused_names" version="0" value="dropout_23.tmp_0"/>
			</rt_info>
			<input>
				<port id="0" precision="FP32">
					<dim>-1</dim>
					<dim>-1</dim>
					<dim>120</dim>
				</port>
				<port id="1" precision="FP32">
					<dim>1</dim>
					<dim>1</dim>
					<dim>120</dim>
				</port>
			</input>
			<output>
				<port id="2" precision="FP32" names="dropout_23.tmp_0,linear_36.tmp_1">
					<dim>-1</dim>
					<dim>-1</dim>
					<dim>120</dim>
				</port>
			</output>
		</layer>
		<layer id="251" name="tmp_7" type="Add" version="opset1">
			<data auto_broadcast="numpy"/>
			<rt_info>
				<attribute name="fused_names" version="0" value="tmp_7"/>
			</rt_info>
			<input>
				<port id="0" precision="FP32">
					<dim>-1</dim>
					<dim>-1</dim>
					<dim>120</dim>
				</port>
				<port id="1" precision="FP32">
					<dim>-1</dim>
					<dim>-1</dim>
					<dim>120</dim>
				</port>
			</input>
			<output>
				<port id="2" precision="FP32" names="tmp_7">
					<dim>-1</dim>
					<dim>-1</dim>
					<dim>120</dim>
				</port>
			</output>
		</layer>
		<layer id="252" name="Constant_1803" type="Const" version="opset1">
			<data element_type="i64" shape="1" offset="5253892" size="8"/>
			<rt_info>
				<attribute name="fused_names" version="0" value="Constant_1803"/>
			</rt_info>
			<output>
				<port id="0" precision="I64">
					<dim>1</dim>
				</port>
			</output>
		</layer>
		<layer id="253" name="Div_28" type="MVN" version="opset6">
			<data eps="9.9999997473787516e-06" normalize_variance="true" eps_mode="INSIDE_SQRT"/>
			<rt_info>
				<attribute name="fused_names" version="0" value="Add_37, Div_28, Pow_1, ReduceMean_2, ReduceMean_3, Sqrt_1, Sub_1"/>
			</rt_info>
			<input>
				<port id="0" precision="FP32">
					<dim>-1</dim>
					<dim>-1</dim>
					<dim>120</dim>
				</port>
				<port id="1" precision="I64">
					<dim>1</dim>
				</port>
			</input>
			<output>
				<port id="2" precision="FP32" names="Div_28">
					<dim>-1</dim>
					<dim>-1</dim>
					<dim>120</dim>
				</port>
			</output>
		</layer>
		<layer id="254" name="Constant_10894" type="Const" version="opset1">
			<data element_type="f32" shape="1, 1, 120" offset="5487400" size="480"/>
			<output>
				<port id="0" precision="FP32">
					<dim>1</dim>
					<dim>1</dim>
					<dim>120</dim>
				</port>
			</output>
		</layer>
		<layer id="255" name="Mul_33" type="Multiply" version="opset1">
			<data auto_broadcast="numpy"/>
			<rt_info>
				<attribute name="fused_names" version="0" value="Mul_33, Reshape_9"/>
			</rt_info>
			<input>
				<port id="0" precision="FP32">
					<dim>-1</dim>
					<dim>-1</dim>
					<dim>120</dim>
				</port>
				<port id="1" precision="FP32">
					<dim>1</dim>
					<dim>1</dim>
					<dim>120</dim>
				</port>
			</input>
			<output>
				<port id="2" precision="FP32" names="Mul_33">
					<dim>-1</dim>
					<dim>-1</dim>
					<dim>120</dim>
				</port>
			</output>
		</layer>
		<layer id="256" name="Constant_10895" type="Const" version="opset1">
			<data element_type="f32" shape="1, 1, 120" offset="5487880" size="480"/>
			<output>
				<port id="0" precision="FP32">
					<dim>1</dim>
					<dim>1</dim>
					<dim>120</dim>
				</port>
			</output>
		</layer>
		<layer id="257" name="layer_norm_16.tmp_2" type="Add" version="opset1">
			<data auto_broadcast="numpy"/>
			<rt_info>
				<attribute name="fused_names" version="0" value="Reshape_10, layer_norm_16.tmp_2"/>
			</rt_info>
			<input>
				<port id="0" precision="FP32">
					<dim>-1</dim>
					<dim>-1</dim>
					<dim>120</dim>
				</port>
				<port id="1" precision="FP32">
					<dim>1</dim>
					<dim>1</dim>
					<dim>120</dim>
				</port>
			</input>
			<output>
				<port id="2" precision="FP32" names="layer_norm_16.tmp_2">
					<dim>-1</dim>
					<dim>-1</dim>
					<dim>120</dim>
				</port>
			</output>
		</layer>
		<layer id="258" name="Constant_5284" type="Const" version="opset1">
			<data element_type="f32" shape="240, 120" offset="5488360" size="115200"/>
			<rt_info>
				<attribute name="fused_names" version="0" value="linear_15.w_0, linear_37.tmp_0"/>
			</rt_info>
			<output>
				<port id="0" precision="FP32">
					<dim>240</dim>
					<dim>120</dim>
				</port>
			</output>
		</layer>
		<layer id="259" name="linear_37.tmp_0" type="MatMul" version="opset1">
			<data transpose_a="false" transpose_b="true"/>
			<rt_info>
				<attribute name="fused_names" version="0" value="linear_15.w_0, linear_37.tmp_0"/>
			</rt_info>
			<input>
				<port id="0" precision="FP32">
					<dim>-1</dim>
					<dim>-1</dim>
					<dim>120</dim>
				</port>
				<port id="1" precision="FP32">
					<dim>240</dim>
					<dim>120</dim>
				</port>
			</input>
			<output>
				<port id="2" precision="FP32" names="linear_37.tmp_0">
					<dim>-1</dim>
					<dim>-1</dim>
					<dim>240</dim>
				</port>
			</output>
		</layer>
		<layer id="260" name="Constant_10896" type="Const" version="opset1">
			<data element_type="f32" shape="1, 1, 240" offset="5603560" size="960"/>
			<output>
				<port id="0" precision="FP32">
					<dim>1</dim>
					<dim>1</dim>
					<dim>240</dim>
				</port>
			</output>
		</layer>
		<layer id="261" name="linear_37.tmp_1" type="Add" version="opset1">
			<data auto_broadcast="numpy"/>
			<rt_info>
				<attribute name="fused_names" version="0" value="linear_37.tmp_1"/>
			</rt_info>
			<input>
				<port id="0" precision="FP32">
					<dim>-1</dim>
					<dim>-1</dim>
					<dim>240</dim>
				</port>
				<port id="1" precision="FP32">
					<dim>1</dim>
					<dim>1</dim>
					<dim>240</dim>
				</port>
			</input>
			<output>
				<port id="2" precision="FP32" names="linear_37.tmp_1">
					<dim>-1</dim>
					<dim>-1</dim>
					<dim>240</dim>
				</port>
			</output>
		</layer>
		<layer id="262" name="dropout_24.tmp_0" type="Swish" version="opset4">
			<rt_info>
				<attribute name="fused_names" version="0" value="Sigmoid_2, dropout_24.tmp_0"/>
			</rt_info>
			<input>
				<port id="0" precision="FP32">
					<dim>-1</dim>
					<dim>-1</dim>
					<dim>240</dim>
				</port>
			</input>
			<output>
				<port id="1" precision="FP32" names="dropout_24.tmp_0,swish_23.tmp_0">
					<dim>-1</dim>
					<dim>-1</dim>
					<dim>240</dim>
				</port>
			</output>
		</layer>
		<layer id="263" name="Constant_5292" type="Const" version="opset1">
			<data element_type="f32" shape="120, 240" offset="5604520" size="115200"/>
			<rt_info>
				<attribute name="fused_names" version="0" value="linear_16.w_0, linear_38.tmp_0"/>
			</rt_info>
			<output>
				<port id="0" precision="FP32">
					<dim>120</dim>
					<dim>240</dim>
				</port>
			</output>
		</layer>
		<layer id="264" name="linear_38.tmp_0" type="MatMul" version="opset1">
			<data transpose_a="false" transpose_b="true"/>
			<rt_info>
				<attribute name="fused_names" version="0" value="linear_16.w_0, linear_38.tmp_0"/>
			</rt_info>
			<input>
				<port id="0" precision="FP32">
					<dim>-1</dim>
					<dim>-1</dim>
					<dim>240</dim>
				</port>
				<port id="1" precision="FP32">
					<dim>120</dim>
					<dim>240</dim>
				</port>
			</input>
			<output>
				<port id="2" precision="FP32" names="linear_38.tmp_0">
					<dim>-1</dim>
					<dim>-1</dim>
					<dim>120</dim>
				</port>
			</output>
		</layer>
		<layer id="265" name="Constant_10897" type="Const" version="opset1">
			<data element_type="f32" shape="1, 1, 120" offset="5719720" size="480"/>
			<output>
				<port id="0" precision="FP32">
					<dim>1</dim>
					<dim>1</dim>
					<dim>120</dim>
				</port>
			</output>
		</layer>
		<layer id="266" name="dropout_25.tmp_0" type="Add" version="opset1">
			<data auto_broadcast="numpy"/>
			<rt_info>
				<attribute name="fused_names" version="0" value="dropout_25.tmp_0"/>
			</rt_info>
			<input>
				<port id="0" precision="FP32">
					<dim>-1</dim>
					<dim>-1</dim>
					<dim>120</dim>
				</port>
				<port id="1" precision="FP32">
					<dim>1</dim>
					<dim>1</dim>
					<dim>120</dim>
				</port>
			</input>
			<output>
				<port id="2" precision="FP32" names="dropout_25.tmp_0,linear_38.tmp_1">
					<dim>-1</dim>
					<dim>-1</dim>
					<dim>120</dim>
				</port>
			</output>
		</layer>
		<layer id="267" name="tmp_8" type="Add" version="opset1">
			<data auto_broadcast="numpy"/>
			<rt_info>
				<attribute name="fused_names" version="0" value="tmp_8"/>
			</rt_info>
			<input>
				<port id="0" precision="FP32">
					<dim>-1</dim>
					<dim>-1</dim>
					<dim>120</dim>
				</port>
				<port id="1" precision="FP32">
					<dim>-1</dim>
					<dim>-1</dim>
					<dim>120</dim>
				</port>
			</input>
			<output>
				<port id="2" precision="FP32" names="tmp_8">
					<dim>-1</dim>
					<dim>-1</dim>
					<dim>120</dim>
				</port>
			</output>
		</layer>
		<layer id="268" name="Constant_1856" type="Const" version="opset1">
			<data element_type="i64" shape="1" offset="5253892" size="8"/>
			<rt_info>
				<attribute name="fused_names" version="0" value="Constant_1856"/>
			</rt_info>
			<output>
				<port id="0" precision="I64">
					<dim>1</dim>
				</port>
			</output>
		</layer>
		<layer id="269" name="Div_29" type="MVN" version="opset6">
			<data eps="9.9999997473787516e-06" normalize_variance="true" eps_mode="INSIDE_SQRT"/>
			<rt_info>
				<attribute name="fused_names" version="0" value="Add_42, Div_29, Pow_2, ReduceMean_4, ReduceMean_5, Sqrt_2, Sub_2"/>
			</rt_info>
			<input>
				<port id="0" precision="FP32">
					<dim>-1</dim>
					<dim>-1</dim>
					<dim>120</dim>
				</port>
				<port id="1" precision="I64">
					<dim>1</dim>
				</port>
			</input>
			<output>
				<port id="2" precision="FP32" names="Div_29">
					<dim>-1</dim>
					<dim>-1</dim>
					<dim>120</dim>
				</port>
			</output>
		</layer>
		<layer id="270" name="Constant_10898" type="Const" version="opset1">
			<data element_type="f32" shape="1, 1, 120" offset="5720200" size="480"/>
			<output>
				<port id="0" precision="FP32">
					<dim>1</dim>
					<dim>1</dim>
					<dim>120</dim>
				</port>
			</output>
		</layer>
		<layer id="271" name="Mul_35" type="Multiply" version="opset1">
			<data auto_broadcast="numpy"/>
			<rt_info>
				<attribute name="fused_names" version="0" value="Mul_35, Reshape_11"/>
			</rt_info>
			<input>
				<port id="0" precision="FP32">
					<dim>-1</dim>
					<dim>-1</dim>
					<dim>120</dim>
				</port>
				<port id="1" precision="FP32">
					<dim>1</dim>
					<dim>1</dim>
					<dim>120</dim>
				</port>
			</input>
			<output>
				<port id="2" precision="FP32" names="Mul_35">
					<dim>-1</dim>
					<dim>-1</dim>
					<dim>120</dim>
				</port>
			</output>
		</layer>
		<layer id="272" name="Constant_10899" type="Const" version="opset1">
			<data element_type="f32" shape="1, 1, 120" offset="5720680" size="480"/>
			<output>
				<port id="0" precision="FP32">
					<dim>1</dim>
					<dim>1</dim>
					<dim>120</dim>
				</port>
			</output>
		</layer>
		<layer id="273" name="layer_norm_17.tmp_2" type="Add" version="opset1">
			<data auto_broadcast="numpy"/>
			<rt_info>
				<attribute name="fused_names" version="0" value="Reshape_12, layer_norm_17.tmp_2"/>
			</rt_info>
			<input>
				<port id="0" precision="FP32">
					<dim>-1</dim>
					<dim>-1</dim>
					<dim>120</dim>
				</port>
				<port id="1" precision="FP32">
					<dim>1</dim>
					<dim>1</dim>
					<dim>120</dim>
				</port>
			</input>
			<output>
				<port id="2" precision="FP32" names="layer_norm_17.tmp_2">
					<dim>-1</dim>
					<dim>-1</dim>
					<dim>120</dim>
				</port>
			</output>
		</layer>
		<layer id="274" name="Constant_5300" type="Const" version="opset1">
			<data element_type="f32" shape="360, 120" offset="5721160" size="172800"/>
			<rt_info>
				<attribute name="fused_names" version="0" value="linear_17.w_0, linear_39.tmp_0"/>
			</rt_info>
			<output>
				<port id="0" precision="FP32">
					<dim>360</dim>
					<dim>120</dim>
				</port>
			</output>
		</layer>
		<layer id="275" name="linear_39.tmp_0" type="MatMul" version="opset1">
			<data transpose_a="false" transpose_b="true"/>
			<rt_info>
				<attribute name="fused_names" version="0" value="linear_17.w_0, linear_39.tmp_0"/>
			</rt_info>
			<input>
				<port id="0" precision="FP32">
					<dim>-1</dim>
					<dim>-1</dim>
					<dim>120</dim>
				</port>
				<port id="1" precision="FP32">
					<dim>360</dim>
					<dim>120</dim>
				</port>
			</input>
			<output>
				<port id="2" precision="FP32" names="linear_39.tmp_0">
					<dim>-1</dim>
					<dim>-1</dim>
					<dim>360</dim>
				</port>
			</output>
		</layer>
		<layer id="276" name="Constant_10900" type="Const" version="opset1">
			<data element_type="f32" shape="1, 1, 360" offset="5893960" size="1440"/>
			<output>
				<port id="0" precision="FP32">
					<dim>1</dim>
					<dim>1</dim>
					<dim>360</dim>
				</port>
			</output>
		</layer>
		<layer id="277" name="linear_39.tmp_1" type="Add" version="opset1">
			<data auto_broadcast="numpy"/>
			<rt_info>
				<attribute name="fused_names" version="0" value="linear_39.tmp_1"/>
			</rt_info>
			<input>
				<port id="0" precision="FP32">
					<dim>-1</dim>
					<dim>-1</dim>
					<dim>360</dim>
				</port>
				<port id="1" precision="FP32">
					<dim>1</dim>
					<dim>1</dim>
					<dim>360</dim>
				</port>
			</input>
			<output>
				<port id="2" precision="FP32" names="linear_39.tmp_1">
					<dim>-1</dim>
					<dim>-1</dim>
					<dim>360</dim>
				</port>
			</output>
		</layer>
		<layer id="278" name="Constant_96" type="Const" version="opset1">
			<data element_type="i64" shape="5" offset="5429140" size="40"/>
			<rt_info>
				<attribute name="fused_names" version="0" value="Constant_96"/>
			</rt_info>
			<output>
				<port id="0" precision="I64" names="Constant_96">
					<dim>5</dim>
				</port>
			</output>
		</layer>
		<layer id="279" name="reshape2_7.tmp_0" type="Reshape" version="opset1">
			<data special_zero="true"/>
			<rt_info>
				<attribute name="fused_names" version="0" value="reshape2_7.tmp_0"/>
			</rt_info>
			<input>
				<port id="0" precision="FP32">
					<dim>-1</dim>
					<dim>-1</dim>
					<dim>360</dim>
				</port>
				<port id="1" precision="I64">
					<dim>5</dim>
				</port>
			</input>
			<output>
				<port id="2" precision="FP32" names="reshape2_7.tmp_0">
					<dim>-1</dim>
					<dim>-1</dim>
					<dim>3</dim>
					<dim>8</dim>
					<dim>15</dim>
				</port>
			</output>
		</layer>
		<layer id="280" name="Constant_1909" type="Const" version="opset1">
			<data element_type="i64" shape="5" offset="5429180" size="40"/>
			<rt_info>
				<attribute name="fused_names" version="0" value="Constant_1909"/>
			</rt_info>
			<output>
				<port id="0" precision="I64">
					<dim>5</dim>
				</port>
			</output>
		</layer>
		<layer id="281" name="transpose_13.tmp_0" type="Transpose" version="opset1">
			<rt_info>
				<attribute name="fused_names" version="0" value="transpose_13.tmp_0"/>
			</rt_info>
			<input>
				<port id="0" precision="FP32">
					<dim>-1</dim>
					<dim>-1</dim>
					<dim>3</dim>
					<dim>8</dim>
					<dim>15</dim>
				</port>
				<port id="1" precision="I64">
					<dim>5</dim>
				</port>
			</input>
			<output>
				<port id="2" precision="FP32" names="transpose_13.tmp_0">
					<dim>3</dim>
					<dim>-1</dim>
					<dim>8</dim>
					<dim>-1</dim>
					<dim>15</dim>
				</port>
			</output>
		</layer>
		<layer id="282" name="Constant_97" type="Const" version="opset1">
			<data element_type="i64" shape="1" offset="5253884" size="8"/>
			<rt_info>
				<attribute name="fused_names" version="0" value="Slice_7"/>
			</rt_info>
			<output>
				<port id="0" precision="I64" names="Constant_97">
					<dim>1</dim>
				</port>
			</output>
		</layer>
		<layer id="283" name="Constant_98" type="Const" version="opset1">
			<data element_type="i64" shape="1" offset="5253900" size="8"/>
			<rt_info>
				<attribute name="fused_names" version="0" value="Slice_7"/>
			</rt_info>
			<output>
				<port id="0" precision="I64" names="Constant_98">
					<dim>1</dim>
				</port>
			</output>
		</layer>
		<layer id="284" name="Constant_99" type="Const" version="opset1">
			<data element_type="i64" shape="1" offset="5253900" size="8"/>
			<rt_info>
				<attribute name="fused_names" version="0" value="Slice_7"/>
			</rt_info>
			<output>
				<port id="0" precision="I64" names="Constant_99">
					<dim>1</dim>
				</port>
			</output>
		</layer>
		<layer id="285" name="Slice_7" type="StridedSlice" version="opset1">
			<data begin_mask="0" end_mask="0" new_axis_mask="" shrink_axis_mask="" ellipsis_mask=""/>
			<rt_info>
				<attribute name="fused_names" version="0" value="Slice_7"/>
			</rt_info>
			<input>
				<port id="0" precision="FP32">
					<dim>3</dim>
					<dim>-1</dim>
					<dim>8</dim>
					<dim>-1</dim>
					<dim>15</dim>
				</port>
				<port id="1" precision="I64">
					<dim>1</dim>
				</port>
				<port id="2" precision="I64">
					<dim>1</dim>
				</port>
				<port id="3" precision="I64">
					<dim>1</dim>
				</port>
			</input>
			<output>
				<port id="4" precision="FP32" names="Slice_7">
					<dim>1</dim>
					<dim>-1</dim>
					<dim>8</dim>
					<dim>-1</dim>
					<dim>15</dim>
				</port>
			</output>
		</layer>
		<layer id="286" name="Constant_1916" type="Const" version="opset1">
			<data element_type="u64" shape="1" offset="5253884" size="8"/>
			<rt_info>
				<attribute name="fused_names" version="0" value="Constant_1916"/>
			</rt_info>
			<output>
				<port id="0" precision="U64">
					<dim>1</dim>
				</port>
			</output>
		</layer>
		<layer id="287" name="transpose_13.tmp_0_slice_0" type="Squeeze" version="opset1">
			<rt_info>
				<attribute name="fused_names" version="0" value="transpose_13.tmp_0_slice_0"/>
			</rt_info>
			<input>
				<port id="0" precision="FP32">
					<dim>1</dim>
					<dim>-1</dim>
					<dim>8</dim>
					<dim>-1</dim>
					<dim>15</dim>
				</port>
				<port id="1" precision="U64">
					<dim>1</dim>
				</port>
			</input>
			<output>
				<port id="2" precision="FP32" names="transpose_13.tmp_0_slice_0">
					<dim>-1</dim>
					<dim>8</dim>
					<dim>-1</dim>
					<dim>15</dim>
				</port>
			</output>
		</layer>
		<layer id="288" name="Constant_10901" type="Const" version="opset1">
			<data element_type="f32" shape="1, 1, 1, 1" offset="5429220" size="4"/>
			<output>
				<port id="0" precision="FP32">
					<dim>1</dim>
					<dim>1</dim>
					<dim>1</dim>
					<dim>1</dim>
				</port>
			</output>
		</layer>
		<layer id="289" name="Mul_36" type="Multiply" version="opset1">
			<data auto_broadcast="numpy"/>
			<rt_info>
				<attribute name="fused_names" version="0" value="Mul_36, tmp_9"/>
			</rt_info>
			<input>
				<port id="0" precision="FP32">
					<dim>-1</dim>
					<dim>8</dim>
					<dim>-1</dim>
					<dim>15</dim>
				</port>
				<port id="1" precision="FP32">
					<dim>1</dim>
					<dim>1</dim>
					<dim>1</dim>
					<dim>1</dim>
				</port>
			</input>
			<output>
				<port id="2" precision="FP32" names="Mul_36,tmp_9">
					<dim>-1</dim>
					<dim>8</dim>
					<dim>-1</dim>
					<dim>15</dim>
				</port>
			</output>
		</layer>
		<layer id="290" name="Constant_103" type="Const" version="opset1">
			<data element_type="i64" shape="1" offset="5253900" size="8"/>
			<rt_info>
				<attribute name="fused_names" version="0" value="Slice_8"/>
			</rt_info>
			<output>
				<port id="0" precision="I64" names="Constant_103">
					<dim>1</dim>
				</port>
			</output>
		</layer>
		<layer id="291" name="Constant_104" type="Const" version="opset1">
			<data element_type="i64" shape="1" offset="5253892" size="8"/>
			<rt_info>
				<attribute name="fused_names" version="0" value="Slice_8"/>
			</rt_info>
			<output>
				<port id="0" precision="I64" names="Constant_104">
					<dim>1</dim>
				</port>
			</output>
		</layer>
		<layer id="292" name="Constant_105" type="Const" version="opset1">
			<data element_type="i64" shape="1" offset="5253900" size="8"/>
			<rt_info>
				<attribute name="fused_names" version="0" value="Slice_8"/>
			</rt_info>
			<output>
				<port id="0" precision="I64" names="Constant_105">
					<dim>1</dim>
				</port>
			</output>
		</layer>
		<layer id="293" name="Slice_8" type="StridedSlice" version="opset1">
			<data begin_mask="0" end_mask="0" new_axis_mask="" shrink_axis_mask="" ellipsis_mask=""/>
			<rt_info>
				<attribute name="fused_names" version="0" value="Slice_8"/>
			</rt_info>
			<input>
				<port id="0" precision="FP32">
					<dim>3</dim>
					<dim>-1</dim>
					<dim>8</dim>
					<dim>-1</dim>
					<dim>15</dim>
				</port>
				<port id="1" precision="I64">
					<dim>1</dim>
				</port>
				<port id="2" precision="I64">
					<dim>1</dim>
				</port>
				<port id="3" precision="I64">
					<dim>1</dim>
				</port>
			</input>
			<output>
				<port id="4" precision="FP32" names="Slice_8">
					<dim>1</dim>
					<dim>-1</dim>
					<dim>8</dim>
					<dim>-1</dim>
					<dim>15</dim>
				</port>
			</output>
		</layer>
		<layer id="294" name="Constant_1927" type="Const" version="opset1">
			<data element_type="u64" shape="1" offset="5253884" size="8"/>
			<rt_info>
				<attribute name="fused_names" version="0" value="Constant_1927"/>
			</rt_info>
			<output>
				<port id="0" precision="U64">
					<dim>1</dim>
				</port>
			</output>
		</layer>
		<layer id="295" name="transpose_13.tmp_0_slice_1" type="Squeeze" version="opset1">
			<rt_info>
				<attribute name="fused_names" version="0" value="transpose_13.tmp_0_slice_1"/>
			</rt_info>
			<input>
				<port id="0" precision="FP32">
					<dim>1</dim>
					<dim>-1</dim>
					<dim>8</dim>
					<dim>-1</dim>
					<dim>15</dim>
				</port>
				<port id="1" precision="U64">
					<dim>1</dim>
				</port>
			</input>
			<output>
				<port id="2" precision="FP32" names="transpose_13.tmp_0_slice_1">
					<dim>-1</dim>
					<dim>8</dim>
					<dim>-1</dim>
					<dim>15</dim>
				</port>
			</output>
		</layer>
		<layer id="296" name="Constant_1936" type="Const" version="opset1">
			<data element_type="i64" shape="4" offset="5429224" size="32"/>
			<rt_info>
…
				<port id="0" precision="FP32">
					<dim>1</dim>
					<dim>1</dim>
					<dim>120</dim>
				</port>
			</output>
		</layer>
		<layer id="348" name="layer_norm_19.tmp_2" type="Add" version="opset1">
			<data auto_broadcast="numpy"/>
			<rt_info>
				<attribute name="fused_names" version="0" value="Reshape_18, layer_norm_19.tmp_2"/>
			</rt_info>
			<input>
				<port id="0" precision="FP32">
					<dim>-1</dim>
					<dim>-1</dim>
					<dim>120</dim>
				</port>
				<port id="1" precision="FP32">
					<dim>1</dim>
					<dim>1</dim>
					<dim>120</dim>
				</port>
			</input>
			<output>
				<port id="2" precision="FP32" names="layer_norm_19.tmp_2">
					<dim>-1</dim>
					<dim>-1</dim>
					<dim>120</dim>
				</port>
			</output>
		</layer>
		<layer id="349" name="Constant_124" type="Const" version="opset1">
			<data element_type="i64" shape="4" offset="6187240" size="32"/>
			<rt_info>
				<attribute name="fused_names" version="0" value="Constant_124"/>
			</rt_info>
			<output>
				<port id="0" precision="I64" names="Constant_124">
					<dim>4</dim>
				</port>
			</output>
		</layer>
		<layer id="350" name="reshape2_9.tmp_0" type="Reshape" version="opset1">
			<data special_zero="true"/>
			<rt_info>
				<attribute name="fused_names" version="0" value="reshape2_9.tmp_0"/>
			</rt_info>
			<input>
				<port id="0" precision="FP32">
					<dim>-1</dim>
					<dim>-1</dim>
					<dim>120</dim>
				</port>
				<port id="1" precision="I64">
					<dim>4</dim>
				</port>
			</input>
			<output>
				<port id="2" precision="FP32" names="reshape2_9.tmp_0">
					<dim>-1</dim>
					<dim>1</dim>
					<dim>-1</dim>
					<dim>120</dim>
				</port>
			</output>
		</layer>
		<layer id="351" name="Constant_2144" type="Const" version="opset1">
			<data element_type="i64" shape="4" offset="6187272" size="32"/>
			<rt_info>
				<attribute name="fused_names" version="0" value="Constant_2144"/>
			</rt_info>
			<output>
				<port id="0" precision="I64">
					<dim>4</dim>
				</port>
			</output>
		</layer>
		<layer id="352" name="transpose_16.tmp_0" type="Transpose" version="opset1">
			<rt_info>
				<attribute name="fused_names" version="0" value="transpose_16.tmp_0"/>
			</rt_info>
			<input>
				<port id="0" precision="FP32">
					<dim>-1</dim>
					<dim>1</dim>
					<dim>-1</dim>
					<dim>120</dim>
				</port>
				<port id="1" precision="I64">
					<dim>4</dim>
				</port>
			</input>
			<output>
				<port id="2" precision="FP32" names="transpose_16.tmp_0">
					<dim>-1</dim>
					<dim>120</dim>
					<dim>1</dim>
					<dim>-1</dim>
				</port>
			</output>
		</layer>
		<layer id="353" name="Multiply_10423" type="Const" version="opset1">
			<data element_type="f32" shape="512, 120, 1, 1" offset="6187304" size="245760"/>
			<output>
				<port id="0" precision="FP32">
					<dim>512</dim>
					<dim>120</dim>
					<dim>1</dim>
					<dim>1</dim>
				</port>
			</output>
		</layer>
		<layer id="354" name="Multiply_10003" type="Convolution" version="opset1">
			<data strides="1, 1" dilations="1, 1" pads_begin="0, 0" pads_end="0, 0" auto_pad="explicit"/>
			<rt_info>
				<attribute name="fused_names" version="0" value="batch_norm2d_7.b_0, batch_norm2d_7.w_0, batch_norm2d_7.w_1, batch_norm2d_7.w_2, batch_norm_61.tmp_2, conv2d_117.tmp_0"/>
			</rt_info>
			<input>
				<port id="0" precision="FP32">
					<dim>-1</dim>
					<dim>120</dim>
					<dim>1</dim>
					<dim>-1</dim>
				</port>
				<port id="1" precision="FP32">
					<dim>512</dim>
					<dim>120</dim>
					<dim>1</dim>
					<dim>1</dim>
				</port>
			</input>
			<output>
				<port id="2" precision="FP32">
					<dim>-1</dim>
					<dim>512</dim>
					<dim>1</dim>
					<dim>-1</dim>
				</port>
			</output>
		</layer>
		<layer id="355" name="Constant_10008" type="Const" version="opset1">
			<data element_type="f32" shape="1, 512, 1, 1" offset="6433064" size="2048"/>
			<output>
				<port id="0" precision="FP32">
					<dim>1</dim>
					<dim>512</dim>
					<dim>1</dim>
					<dim>1</dim>
				</port>
			</output>
		</layer>
		<layer id="356" name="batch_norm_61.tmp_2" type="Add" version="opset1">
			<data auto_broadcast="numpy"/>
			<rt_info>
				<attribute name="fused_names" version="0" value="batch_norm2d_7.b_0, batch_norm2d_7.w_0, batch_norm2d_7.w_1, batch_norm2d_7.w_2, batch_norm_61.tmp_2"/>
			</rt_info>
			<input>
				<port id="0" precision="FP32">
					<dim>-1</dim>
					<dim>512</dim>
					<dim>1</dim>
					<dim>-1</dim>
				</port>
				<port id="1" precision="FP32">
					<dim>1</dim>
					<dim>512</dim>
					<dim>1</dim>
					<dim>1</dim>
				</port>
			</input>
			<output>
				<port id="2" precision="FP32" names="batch_norm_61.tmp_2">
					<dim>-1</dim>
					<dim>512</dim>
					<dim>1</dim>
					<dim>-1</dim>
				</port>
			</output>
		</layer>
		<layer id="357" name="swish_25.tmp_0" type="Swish" version="opset4">
			<rt_info>
				<attribute name="fused_names" version="0" value="Sigmoid_4, swish_25.tmp_0"/>
			</rt_info>
			<input>
				<port id="0" precision="FP32">
					<dim>-1</dim>
					<dim>512</dim>
					<dim>1</dim>
					<dim>-1</dim>
				</port>
			</input>
			<output>
				<port id="1" precision="FP32" names="swish_25.tmp_0">
					<dim>-1</dim>
					<dim>512</dim>
					<dim>1</dim>
					<dim>-1</dim>
				</port>
			</output>
		</layer>
		<layer id="358" name="concat_1.tmp_0" type="Concat" version="opset1">
			<data axis="1"/>
			<rt_info>
				<attribute name="fused_names" version="0" value="concat_1.tmp_0"/>
			</rt_info>
			<input>
				<port id="0" precision="FP32">
					<dim>-1</dim>
					<dim>512</dim>
					<dim>1</dim>
					<dim>-1</dim>
				</port>
				<port id="1" precision="FP32">
					<dim>-1</dim>
					<dim>512</dim>
					<dim>1</dim>
					<dim>-1</dim>
				</port>
			</input>
			<output>
				<port id="2" precision="FP32" names="concat_1.tmp_0">
					<dim>-1</dim>
					<dim>1024</dim>
					<dim>1</dim>
					<dim>-1</dim>
				</port>
			</output>
		</layer>
		<layer id="359" name="Multiply_10432" type="Const" version="opset1">
			<data element_type="f32" shape="64, 1024, 3, 3" offset="6435112" size="2359296"/>
			<output>
				<port id="0" precision="FP32">
					<dim>64</dim>
					<dim>1024</dim>
					<dim>3</dim>
					<dim>3</dim>
				</port>
			</output>
		</layer>
		<layer id="360" name="Multiply_10010" type="Convolution" version="opset1">
			<data strides="1, 1" dilations="1, 1" pads_begin="1, 1" pads_end="1, 1" auto_pad="explicit"/>
			<rt_info>
				<attribute name="fused_names" version="0" value="batch_norm2d_8.b_0, batch_norm2d_8.w_0, batch_norm2d_8.w_1, batch_norm2d_8.w_2, batch_norm_62.tmp_2, conv2d_118.tmp_0"/>
			</rt_info>
			<input>
				<port id="0" precision="FP32">
					<dim>-1</dim>
					<dim>1024</dim>
					<dim>1</dim>
					<dim>-1</dim>
				</port>
				<port id="1" precision="FP32">
					<dim>64</dim>
					<dim>1024</dim>
					<dim>3</dim>
					<dim>3</dim>
				</port>
			</input>
			<output>
				<port id="2" precision="FP32">
					<dim>-1</dim>
					<dim>64</dim>
					<dim>1</dim>
					<dim>-1</dim>
				</port>
			</output>
		</layer>
		<layer id="361" name="Constant_10015" type="Const" version="opset1">
			<data element_type="f32" shape="1, 64, 1, 1" offset="8794408" size="256"/>
			<output>
				<port id="0" precision="FP32">
					<dim>1</dim>
					<dim>64</dim>
					<dim>1</dim>
					<dim>1</dim>
				</port>
			</output>
		</layer>
		<layer id="362" name="batch_norm_62.tmp_2" type="Add" version="opset1">
			<data auto_broadcast="numpy"/>
			<rt_info>
				<attribute name="fused_names" version="0" value="batch_norm2d_8.b_0, batch_norm2d_8.w_0, batch_norm2d_8.w_1, batch_norm2d_8.w_2, batch_norm_62.tmp_2"/>
			</rt_info>
			<input>
				<port id="0" precision="FP32">
					<dim>-1</dim>
					<dim>64</dim>
					<dim>1</dim>
					<dim>-1</dim>
				</port>
				<port id="1" precision="FP32">
					<dim>1</dim>
					<dim>64</dim>
					<dim>1</dim>
					<dim>1</dim>
				</port>
			</input>
			<output>
				<port id="2" precision="FP32" names="batch_norm_62.tmp_2">
					<dim>-1</dim>
					<dim>64</dim>
					<dim>1</dim>
					<dim>-1</dim>
				</port>
			</output>
		</layer>
		<layer id="363" name="swish_26.tmp_0" type="Swish" version="opset4">
			<rt_info>
				<attribute name="fused_names" version="0" value="Sigmoid_5, swish_26.tmp_0"/>
			</rt_info>
			<input>
				<port id="0" precision="FP32">
					<dim>-1</dim>
					<dim>64</dim>
					<dim>1</dim>
					<dim>-1</dim>
				</port>
			</input>
			<output>
				<port id="1" precision="FP32" names="swish_26.tmp_0">
					<dim>-1</dim>
					<dim>64</dim>
					<dim>1</dim>
					<dim>-1</dim>
				</port>
			</output>
		</layer>
		<layer id="364" name="Multiply_10441" type="Const" version="opset1">
			<data element_type="f32" shape="64, 64, 1, 1" offset="8794664" size="16384"/>
			<output>
				<port id="0" precision="FP32">
					<dim>64</dim>
					<dim>64</dim>
					<dim>1</dim>
					<dim>1</dim>
				</port>
			</output>
		</layer>
		<layer id="365" name="Multiply_10017" type="Convolution" version="opset1">
			<data strides="1, 1" dilations="1, 1" pads_begin="0, 0" pads_end="0, 0" auto_pad="explicit"/>
			<rt_info>
				<attribute name="fused_names" version="0" value="batch_norm2d_9.b_0, batch_norm2d_9.w_0, batch_norm2d_9.w_1, batch_norm2d_9.w_2, batch_norm_63.tmp_2, conv2d_119.tmp_0"/>
			</rt_info>
			<input>
				<port id="0" precision="FP32">
					<dim>-1</dim>
					<dim>64</dim>
					<dim>1</dim>
					<dim>-1</dim>
				</port>
				<port id="1" precision="FP32">
					<dim>64</dim>
					<dim>64</dim>
					<dim>1</dim>
					<dim>1</dim>
				</port>
			</input>
			<output>
				<port id="2" precision="FP32">
					<dim>-1</dim>
					<dim>64</dim>
					<dim>1</dim>
					<dim>-1</dim>
				</port>
			</output>
		</layer>
		<layer id="366" name="Constant_10022" type="Const" version="opset1">
			<data element_type="f32" shape="1, 64, 1, 1" offset="8811048" size="256"/>
			<output>
				<port id="0" precision="FP32">
					<dim>1</dim>
					<dim>64</dim>
					<dim>1</dim>
					<dim>1</dim>
				</port>
			</output>
		</layer>
		<layer id="367" name="batch_norm_63.tmp_2" type="Add" version="opset1">
			<data auto_broadcast="numpy"/>
			<rt_info>
				<attribute name="fused_names" version="0" value="batch_norm2d_9.b_0, batch_norm2d_9.w_0, batch_norm2d_9.w_1, batch_norm2d_9.w_2, batch_norm_63.tmp_2"/>
			</rt_info>
			<input>
				<port id="0" precision="FP32">
					<dim>-1</dim>
					<dim>64</dim>
					<dim>1</dim>
					<dim>-1</dim>
				</port>
				<port id="1" precision="FP32">
					<dim>1</dim>
					<dim>64</dim>
					<dim>1</dim>
					<dim>1</dim>
				</port>
			</input>
			<output>
				<port id="2" precision="FP32" names="batch_norm_63.tmp_2">
					<dim>-1</dim>
					<dim>64</dim>
					<dim>1</dim>
					<dim>-1</dim>
				</port>
			</output>
		</layer>
		<layer id="368" name="swish_27.tmp_0" type="Swish" version="opset4">
			<rt_info>
				<attribute name="fused_names" version="0" value="Sigmoid_6, swish_27.tmp_0"/>
			</rt_info>
			<input>
				<port id="0" precision="FP32">
					<dim>-1</dim>
					<dim>64</dim>
					<dim>1</dim>
					<dim>-1</dim>
				</port>
			</input>
			<output>
				<port id="1" precision="FP32" names="swish_27.tmp_0">
					<dim>-1</dim>
					<dim>64</dim>
					<dim>1</dim>
					<dim>-1</dim>
				</port>
			</output>
		</layer>
		<layer id="369" name="Constant_2162" type="Const" version="opset1">
			<data element_type="u64" shape="1" offset="5253892" size="8"/>
			<rt_info>
				<attribute name="fused_names" version="0" value="Constant_2162"/>
			</rt_info>
			<output>
				<port id="0" precision="U64">
					<dim>1</dim>
				</port>
			</output>
		</layer>
		<layer id="370" name="squeeze_1.tmp_0" type="Squeeze" version="opset1">
			<rt_info>
				<attribute name="fused_names" version="0" value="squeeze_1.tmp_0"/>
			</rt_info>
			<input>
				<port id="0" precision="FP32">
					<dim>-1</dim>
					<dim>64</dim>
					<dim>1</dim>
					<dim>-1</dim>
				</port>
				<port id="1" precision="U64">
					<dim>1</dim>
				</port>
			</input>
			<output>
				<port id="2" precision="FP32" names="squeeze_1.tmp_0">
					<dim>-1</dim>
					<dim>64</dim>
					<dim>-1</dim>
				</port>
			</output>
		</layer>
		<layer id="371" name="Constant_2164" type="Const" version="opset1">
			<data element_type="i64" shape="3" offset="5253916" size="24"/>
			<rt_info>
				<attribute name="fused_names" version="0" value="Constant_2164"/>
			</rt_info>
			<output>
				<port id="0" precision="I64">
					<dim>3</dim>
				</port>
			</output>
		</layer>
		<layer id="372" name="transpose_17.tmp_0" type="Transpose" version="opset1">
			<rt_info>
				<attribute name="fused_names" version="0" value="transpose_17.tmp_0"/>
			</rt_info>
			<input>
				<port id="0" precision="FP32">
					<dim>-1</dim>
					<dim>64</dim>
					<dim>-1</dim>
				</port>
				<port id="1" precision="I64">
					<dim>3</dim>
				</port>
			</input>
			<output>
				<port id="2" precision="FP32" names="transpose_17.tmp_0">
					<dim>-1</dim>
					<dim>-1</dim>
					<dim>64</dim>
				</port>
			</output>
		</layer>
		<layer id="373" name="Constant_5334" type="Const" version="opset1">
			<data element_type="f32" shape="6625, 64" offset="8811304" size="1696000"/>
			<rt_info>
				<attribute name="fused_names" version="0" value="linear_21.w_0, linear_43.tmp_0"/>
			</rt_info>
			<output>
				<port id="0" precision="FP32">
					<dim>6625</dim>
					<dim>64</dim>
				</port>
			</output>
		</layer>
		<layer id="374" name="linear_43.tmp_0" type="MatMul" version="opset1">
			<data transpose_a="false" transpose_b="true"/>
			<rt_info>
				<attribute name="fused_names" version="0" value="linear_21.w_0, linear_43.tmp_0"/>
			</rt_info>
			<input>
				<port id="0" precision="FP32">
					<dim>-1</dim>
					<dim>-1</dim>
					<dim>64</dim>
				</port>
				<port id="1" precision="FP32">
					<dim>6625</dim>
					<dim>64</dim>
				</port>
			</input>
			<output>
				<port id="2" precision="FP32" names="linear_43.tmp_0">
					<dim>-1</dim>
					<dim>-1</dim>
					<dim>6625</dim>
				</port>
			</output>
		</layer>
		<layer id="375" name="Constant_10909" type="Const" version="opset1">
			<data element_type="f32" shape="1, 1, 6625" offset="10507304" size="26500"/>
			<output>
				<port id="0" precision="FP32">
					<dim>1</dim>
					<dim>1</dim>
					<dim>6625</dim>
				</port>
			</output>
		</layer>
		<layer id="376" name="linear_43.tmp_1" type="Add" version="opset1">
			<data auto_broadcast="numpy"/>
			<rt_info>
				<attribute name="fused_names" version="0" value="linear_43.tmp_1"/>
			</rt_info>
			<input>
				<port id="0" precision="FP32">
					<dim>-1</dim>
					<dim>-1</dim>
					<dim>6625</dim>
				</port>
				<port id="1" precision="FP32">
					<dim>1</dim>
					<dim>1</dim>
					<dim>6625</dim>
				</port>
			</input>
			<output>
				<port id="2" precision="FP32" names="linear_43.tmp_1">
					<dim>-1</dim>
					<dim>-1</dim>
					<dim>6625</dim>
				</port>
			</output>
		</layer>
		<layer id="377" name="ShapeOf_2168" type="ShapeOf" version="opset1">
			<rt_info>
				<attribute name="fused_names" version="0" value="ShapeOf_2168, ShapeOf_2242"/>
			</rt_info>
			<input>
				<port id="0" precision="FP32">
					<dim>-1</dim>
					<dim>-1</dim>
					<dim>6625</dim>
				</port>
			</input>
			<output>
				<port id="1" precision="I64">
					<dim>3</dim>
				</port>
			</output>
		</layer>
		<layer id="378" name="Constant_2171" type="Const" version="opset1">
			<data element_type="i64" shape="1" offset="5253884" size="8"/>
			<rt_info>
				<attribute name="fused_names" version="0" value="Constant_2171"/>
			</rt_info>
			<output>
				<port id="0" precision="I64">
					<dim>1</dim>
				</port>
			</output>
		</layer>
		<layer id="379" name="Constant_2170" type="Const" version="opset1">
			<data element_type="i64" shape="1" offset="5253892" size="8"/>
			<rt_info>
				<attribute name="fused_names" version="0" value="Constant_2170"/>
			</rt_info>
			<output>
				<port id="0" precision="I64">
					<dim>1</dim>
				</port>
			</output>
		</layer>
		<layer id="380" name="Constant_2172" type="Const" version="opset1">
			<data element_type="i64" shape="1" offset="5253900" size="8"/>
			<rt_info>
				<attribute name="fused_names" version="0" value="Constant_2172"/>
			</rt_info>
			<output>
				<port id="0" precision="I64">
					<dim>1</dim>
				</port>
			</output>
		</layer>
		<layer id="381" name="StridedSlice_2173" type="StridedSlice" version="opset1">
			<data begin_mask="0" end_mask="0" new_axis_mask="" shrink_axis_mask="" ellipsis_mask=""/>
			<rt_info>
				<attribute name="fused_names" version="0" value="Constant_2170, Constant_2171, Constant_2172, StridedSlice_2173"/>
			</rt_info>
			<input>
				<port id="0" precision="I64">
					<dim>3</dim>
				</port>
				<port id="1" precision="I64">
					<dim>1</dim>
				</port>
				<port id="2" precision="I64">
					<dim>1</dim>
				</port>
				<port id="3" precision="I64">
					<dim>1</dim>
				</port>
			</input>
			<output>
				<port id="4" precision="I64">
					<dim>2</dim>
				</port>
			</output>
		</layer>
		<layer id="382" name="Constant_2174" type="Const" version="opset1">
			<data element_type="i64" shape="" offset="5253884" size="8"/>
			<rt_info>
				<attribute name="fused_names" version="0" value="Constant_2174"/>
			</rt_info>
			<output>
				<port id="0" precision="I64"/>
			</output>
		</layer>
		<layer id="383" name="ReduceProd_2175" type="ReduceProd" version="opset1">
			<data keep_dims="true"/>
			<rt_info>
				<attribute name="fused_names" version="0" value="Constant_2174, ReduceProd_2175"/>
			</rt_info>
			<input>
				<port id="0" precision="I64">
					<dim>2</dim>
				</port>
				<port id="1" precision="I64"/>
			</input>
			<output>
				<port id="2" precision="I64">
					<dim>1</dim>
				</port>
			</output>
		</layer>
		<layer id="384" name="Constant_2176" type="Const" version="opset1">
			<data element_type="i64" shape="1" offset="5253908" size="8"/>
			<rt_info>
				<attribute name="fused_names" version="0" value="Constant_2176"/>
			</rt_info>
			<output>
				<port id="0" precision="I64">
					<dim>1</dim>
				</port>
			</output>
		</layer>
		<layer id="385" name="Concat_2177" type="Concat" version="opset1">
			<data axis="0"/>
			<rt_info>
				<attribute name="fused_names" version="0" value="Concat_2177, Constant_2176"/>
			</rt_info>
			<input>
				<port id="0" precision="I64">
					<dim>1</dim>
				</port>
				<port id="1" precision="I64">
					<dim>1</dim>
				</port>
			</input>
			<output>
				<port id="2" precision="I64">
					<dim>2</dim>
				</port>
			</output>
		</layer>
		<layer id="386" name="Reshape_2178" type="Reshape" version="opset1">
			<data special_zero="true"/>
			<rt_info>
				<attribute name="fused_names" version="0" value="Reshape_2178"/>
			</rt_info>
			<input>
				<port id="0" precision="FP32">
					<dim>-1</dim>
					<dim>-1</dim>
					<dim>6625</dim>
				</port>
				<port id="1" precision="I64">
					<dim>2</dim>
				</port>
			</input>
			<output>
				<port id="2" precision="FP32">
					<dim>-1</dim>
					<dim>-1</dim>
				</port>
			</output>
		</layer>
		<layer id="387" name="Softmax_2241" type="SoftMax" version="opset8">
			<data axis="1"/>
			<rt_info>
				<attribute name="fused_names" version="0" value="Softmax_2241"/>
			</rt_info>
			<input>
				<port id="0" precision="FP32">
					<dim>-1</dim>
					<dim>-1</dim>
				</port>
			</input>
			<output>
				<port id="1" precision="FP32">
					<dim>-1</dim>
					<dim>-1</dim>
				</port>
			</output>
		</layer>
		<layer id="388" name="softmax_5.tmp_0" type="Reshape" version="opset1">
			<data special_zero="false"/>
			<rt_info>
				<attribute name="fused_names" version="0" value="softmax_5.tmp_0"/>
			</rt_info>
			<input>
				<port id="0" precision="FP32">
					<dim>-1</dim>
					<dim>-1</dim>
				</port>
				<port id="1" precision="I64">
					<dim>3</dim>
				</port>
			</input>
			<output>
				<port id="2" precision="FP32" names="softmax_5.tmp_0">
					<dim>-1</dim>
					<dim>-1</dim>
					<dim>6625</dim>
				</port>
			</output>
		</layer>
		<layer id="389" name="softmax_5.tmp_0/sink_port_0" type="Result" version="opset1">
			<rt_info>
				<attribute name="fused_names" version="0" value="softmax_5.tmp_0/sink_port_0"/>
			</rt_info>
			<input>
				<port id="0" precision="FP32">
					<dim>-1</dim>
					<dim>-1</dim>
					<dim>6625</dim>
				</port>
			</input>
		</layer>
	</layers>
	<edges>
		<edge from-layer="0" from-port="0" to-layer="2" to-port="0"/>
		<edge from-layer="1" from-port="0" to-layer="2" to-port="1"/>
		<edge from-layer="2" from-port="2" to-layer="4" to-port="0"/>
		<edge from-layer="3" from-port="0" to-layer="4" to-port="1"/>
		<edge from-layer="4" from-port="2" to-layer="5" to-port="0"/>
		<edge from-layer="5" from-port="1" to-layer="7" to-port="0"/>
		<edge from-layer="6" from-port="0" to-layer="7" to-port="1"/>
		<edge from-layer="7" from-port="2" to-layer="9" to-port="0"/>
		<edge from-layer="8" from-port="0" to-layer="9" to-port="1"/>
		<edge from-layer="9" from-port="2" to-layer="10" to-port="0"/>
		<edge from-layer="10" from-port="1" to-layer="12" to-port="0"/>
		<edge from-layer="11" from-port="0" to-layer="12" to-port="1"/>
		<edge from-layer="12" from-port="2" to-layer="14" to-port="0"/>
		<edge from-layer="13" from-port="0" to-layer="14" to-port="1"/>
		<edge from-layer="14" from-port="2" to-layer="15" to-port="0"/>
		<edge from-layer="15" from-port="1" to-layer="17" to-port="0"/>
		<edge from-layer="16" from-port="0" to-layer="17" to-port="1"/>
		<edge from-layer="17" from-port="2" to-layer="19" to-port="0"/>
		<edge from-layer="18" from-port="0" to-layer="19" to-port="1"/>
		<edge from-layer="19" from-port="2" to-layer="20" to-port="0"/>
		<edge from-layer="20" from-port="1" to-layer="22" to-port="0"/>
		<edge from-layer="21" from-port="0" to-layer="22" to-port="1"/>
		<edge from-layer="22" from-port="2" to-layer="24" to-port="0"/>
		<edge from-layer="23" from-port="0" to-layer="24" to-port="1"/>
		<edge from-layer="24" from-port="2" to-layer="25" to-port="0"/>
		<edge from-layer="25" from-port="1" to-layer="27" to-port="0"/>
		<edge from-layer="26" from-port="0" to-layer="27" to-port="1"/>
		<edge from-layer="27" from-port="2" to-layer="29" to-port="0"/>
		<edge from-layer="28" from-port="0" to-layer="29" to-port="1"/>
		<edge from-layer="29" from-port="2" to-layer="30" to-port="0"/>
		<edge from-layer="30" from-port="1" to-layer="32" to-port="0"/>
		<edge from-layer="31" from-port="0" to-layer="32" to-port="1"/>
		<edge from-layer="32" from-port="2" to-layer="34" to-port="0"/>
		<edge from-layer="33" from-port="0" to-layer="34" to-port="1"/>
		<edge from-layer="34" from-port="2" to-layer="35" to-port="0"/>
		<edge from-layer="35" from-port="1" to-layer="37" to-port="0"/>
		<edge from-layer="36" from-port="0" to-layer="37" to-port="1"/>
		<edge from-layer="37" from-port="2" to-layer="39" to-port="0"/>
		<edge from-layer="38" from-port="0" to-layer="39" to-port="1"/>
		<edge from-layer="39" from-port="2" to-layer="40" to-port="0"/>
		<edge from-layer="40" from-port="1" to-layer="42" to-port="0"/>
		<edge from-layer="41" from-port="0" to-layer="42" to-port="1"/>
		<edge from-layer="42" from-port="2" to-layer="44" to-port="0"/>
		<edge from-layer="43" from-port="0" to-layer="44" to-port="1"/>
		<edge from-layer="44" from-port="2" to-layer="45" to-port="0"/>
		<edge from-layer="45" from-port="1" to-layer="47" to-port="0"/>
		<edge from-layer="46" from-port="0" to-layer="47" to-port="1"/>
		<edge from-layer="47" from-port="2" to-layer="49" to-port="0"/>
		<edge from-layer="48" from-port="0" to-layer="49" to-port="1"/>
		<edge from-layer="49" from-port="2" to-layer="50" to-port="0"/>
		<edge from-layer="50" from-port="1" to-layer="52" to-port="0"/>
		<edge from-layer="51" from-port="0" to-layer="52" to-port="1"/>
		<edge from-layer="52" from-port="2" to-layer="54" to-port="0"/>
		<edge from-layer="53" from-port="0" to-layer="54" to-port="1"/>
		<edge from-layer="54" from-port="2" to-layer="55" to-port="0"/>
		<edge from-layer="55" from-port="1" to-layer="57" to-port="0"/>
		<edge from-layer="56" from-port="0" to-layer="57" to-port="1"/>
		<edge from-layer="57" from-port="2" to-layer="59" to-port="0"/>
		<edge from-layer="58" from-port="0" to-layer="59" to-port="1"/>
		<edge from-layer="59" from-port="2" to-layer="60" to-port="0"/>
		<edge from-layer="60" from-port="1" to-layer="62" to-port="0"/>
		<edge from-layer="61" from-port="0" to-layer="62" to-port="1"/>
		<edge from-layer="62" from-port="2" to-layer="64" to-port="0"/>
		<edge from-layer="63" from-port="0" to-layer="64" to-port="1"/>
		<edge from-layer="64" from-port="2" to-layer="65" to-port="0"/>
		<edge from-layer="65" from-port="1" to-layer="67" to-port="0"/>
		<edge from-layer="66" from-port="0" to-layer="67" to-port="1"/>
		<edge from-layer="67" from-port="2" to-layer="69" to-port="0"/>
		<edge from-layer="68" from-port="0" to-layer="69" to-port="1"/>
		<edge from-layer="69" from-port="2" to-layer="70" to-port="0"/>
		<edge from-layer="70" from-port="1" to-layer="72" to-port="0"/>
		<edge from-layer="71" from-port="0" to-layer="72" to-port="1"/>
		<edge from-layer="72" from-port="2" to-layer="74" to-port="0"/>
		<edge from-layer="73" from-port="0" to-layer="74" to-port="1"/>
		<edge from-layer="74" from-port="2" to-layer="75" to-port="0"/>
		<edge from-layer="75" from-port="1" to-layer="77" to-port="0"/>
		<edge from-layer="76" from-port="0" to-layer="77" to-port="1"/>
		<edge from-layer="77" from-port="2" to-layer="79" to-port="0"/>
		<edge from-layer="78" from-port="0" to-layer="79" to-port="1"/>
		<edge from-layer="79" from-port="2" to-layer="80" to-port="0"/>
		<edge from-layer="80" from-port="1" to-layer="82" to-port="0"/>
		<edge from-layer="81" from-port="0" to-layer="82" to-port="1"/>
		<edge from-layer="82" from-port="2" to-layer="84" to-port="0"/>
		<edge from-layer="83" from-port="0" to-layer="84" to-port="1"/>
		<edge from-layer="84" from-port="2" to-layer="85" to-port="0"/>
		<edge from-layer="85" from-port="1" to-layer="87" to-port="0"/>
		<edge from-layer="86" from-port="0" to-layer="87" to-port="1"/>
		<edge from-layer="87" from-port="2" to-layer="89" to-port="0"/>
		<edge from-layer="88" from-port="0" to-layer="89" to-port="1"/>
		<edge from-layer="89" from-port="2" to-layer="90" to-port="0"/>
		<edge from-layer="90" from-port="1" to-layer="92" to-port="0"/>
		<edge from-layer="91" from-port="0" to-layer="92" to-port="1"/>
		<edge from-layer="92" from-port="2" to-layer="94" to-port="0"/>
		<edge from-layer="93" from-port="0" to-layer="94" to-port="1"/>
		<edge from-layer="94" from-port="2" to-layer="95" to-port="0"/>
		<edge from-layer="95" from-port="1" to-layer="97" to-port="0"/>
		<edge from-layer="96" from-port="0" to-layer="97" to-port="1"/>
		<edge from-layer="97" from-port="2" to-layer="99" to-port="0"/>
		<edge from-layer="98" from-port="0" to-layer="99" to-port="1"/>
		<edge from-layer="99" from-port="2" to-layer="100" to-port="0"/>
		<edge from-layer="100" from-port="1" to-layer="102" to-port="0"/>
		<edge from-layer="101" from-port="0" to-layer="102" to-port="1"/>
		<edge from-layer="102" from-port="2" to-layer="104" to-port="0"/>
		<edge from-layer="103" from-port="0" to-layer="104" to-port="1"/>
		<edge from-layer="104" from-port="2" to-layer="105" to-port="0"/>
		<edge from-layer="105" from-port="1" to-layer="107" to-port="0"/>
		<edge from-layer="106" from-port="0" to-layer="107" to-port="1"/>
		<edge from-layer="107" from-port="2" to-layer="109" to-port="0"/>
		<edge from-layer="108" from-port="0" to-layer="109" to-port="1"/>
		<edge from-layer="109" from-port="2" to-layer="110" to-port="0"/>
		<edge from-layer="110" from-port="1" to-layer="112" to-port="0"/>
		<edge from-layer="111" from-port="0" to-layer="112" to-port="1"/>
		<edge from-layer="112" from-port="2" to-layer="114" to-port="0"/>
		<edge from-layer="113" from-port="0" to-layer="114" to-port="1"/>
		<edge from-layer="114" from-port="2" to-layer="115" to-port="0"/>
		<edge from-layer="115" from-port="1" to-layer="117" to-port="0"/>
		<edge from-layer="116" from-port="0" to-layer="117" to-port="1"/>
		<edge from-layer="117" from-port="2" to-layer="119" to-port="0"/>
		<edge from-layer="118" from-port="0" to-layer="119" to-port="1"/>
		<edge from-layer="119" from-port="2" to-layer="120" to-port="0"/>
		<edge from-layer="120" from-port="1" to-layer="122" to-port="0"/>
		<edge from-layer="121" from-port="0" to-layer="122" to-port="1"/>
		<edge from-layer="122" from-port="2" to-layer="124" to-port="0"/>
		<edge from-layer="122" from-port="2" to-layer="137" to-port="0"/>
		<edge from-layer="123" from-port="0" to-layer="124" to-port="1"/>
		<edge from-layer="124" from-port="2" to-layer="126" to-port="0"/>
		<edge from-layer="125" from-port="0" to-layer="126" to-port="1"/>
		<edge from-layer="126" from-port="2" to-layer="128" to-port="0"/>
		<edge from-layer="127" from-port="0" to-layer="128" to-port="1"/>
		<edge from-layer="128" from-port="2" to-layer="129" to-port="0"/>
		<edge from-layer="129" from-port="1" to-layer="131" to-port="0"/>
		<edge from-layer="130" from-port="0" to-layer="131" to-port="1"/>
		<edge from-layer="131" from-port="2" to-layer="133" to-port="0"/>
		<edge from-layer="132" from-port="0" to-layer="133" to-port="1"/>
		<edge from-layer="133" from-port="2" to-layer="136" to-port="0"/>
		<edge from-layer="134" from-port="0" to-layer="136" to-port="1"/>
		<edge from-layer="135" from-port="0" to-layer="136" to-port="2"/>
		<edge from-layer="136" from-port="3" to-layer="137" to-port="1"/>
		<edge from-layer="137" from-port="2" to-layer="139" to-port="0"/>
		<edge from-layer="138" from-port="0" to-layer="139" to-port="1"/>
		<edge from-layer="139" from-port="2" to-layer="141" to-port="0"/>
		<edge from-layer="140" from-port="0" to-layer="141" to-port="1"/>
		<edge from-layer="141" from-port="2" to-layer="142" to-port="0"/>
		<edge from-layer="142" from-port="1" to-layer="144" to-port="0"/>
		<edge from-layer="143" from-port="0" to-layer="144" to-port="1"/>
		<edge from-layer="144" from-port="2" to-layer="146" to-port="0"/>
		<edge from-layer="145" from-port="0" to-layer="146" to-port="1"/>
		<edge from-layer="146" from-port="2" to-layer="147" to-port="0"/>
		<edge from-layer="147" from-port="1" to-layer="149" to-port="0"/>
		<edge from-layer="148" from-port="0" to-layer="149" to-port="1"/>
		<edge from-layer="149" from-port="2" to-layer="151" to-port="0"/>
		<edge from-layer="149" from-port="2" to-layer="164" to-port="0"/>
		<edge from-layer="150" from-port="0" to-layer="151" to-port="1"/>
		<edge from-layer="151" from-port="2" to-layer="153" to-port="0"/>
		<edge from-layer="152" from-port="0" to-layer="153" to-port="1"/>
		<edge from-layer="153" from-port="2" to-layer="155" to-port="0"/>
		<edge from-layer="154" from-port="0" to-layer="155" to-port="1"/>
		<edge from-layer="155" from-port="2" to-layer="156" to-port="0"/>
		<edge from-layer="156" from-port="1" to-layer="158" to-port="0"/>
		<edge from-layer="157" from-port="0" to-layer="158" to-port="1"/>
		<edge from-layer="158" from-port="2" to-layer="160" to-port="0"/>
		<edge from-layer="159" from-port="0" to-layer="160" to-port="1"/>
		<edge from-layer="160" from-port="2" to-layer="163" to-port="0"/>
		<edge from-layer="161" from-port="0" to-layer="163" to-port="1"/>
		<edge from-layer="162" from-port="0" to-layer="163" to-port="2"/>
		<edge from-layer="163" from-port="3" to-layer="164" to-port="1"/>
		<edge from-layer="164" from-port="2" to-layer="166" to-port="0"/>
		<edge from-layer="165" from-port="0" to-layer="166" to-port="1"/>
		<edge from-layer="166" from-port="2" to-layer="168" to-port="0"/>
		<edge from-layer="167" from-port="0" to-layer="168" to-port="1"/>
		<edge from-layer="168" from-port="2" to-layer="169" to-port="0"/>
		<edge from-layer="169" from-port="1" to-layer="171" to-port="0"/>
		<edge from-layer="170" from-port="0" to-layer="171" to-port="1"/>
		<edge from-layer="171" from-port="2" to-layer="172" to-port="0"/>
		<edge from-layer="172" from-port="1" to-layer="174" to-port="0"/>
		<edge from-layer="172" from-port="1" to-layer="358" to-port="0"/>
		<edge from-layer="173" from-port="0" to-layer="174" to-port="1"/>
		<edge from-layer="174" from-port="2" to-layer="176" to-port="0"/>
		<edge from-layer="175" from-port="0" to-layer="176" to-port="1"/>
		<edge from-layer="176" from-port="2" to-layer="177" to-port="0"/>
		<edge from-layer="177" from-port="1" to-layer="179" to-port="0"/>
		<edge from-layer="178" from-port="0" to-layer="179" to-port="1"/>
		<edge from-layer="179" from-port="2" to-layer="181" to-port="0"/>
		<edge from-layer="180" from-port="0" to-layer="181" to-port="1"/>
		<edge from-layer="181" from-port="2" to-layer="182" to-port="0"/>
		<edge from-layer="182" from-port="1" to-layer="183" to-port="0"/>
		<edge from-layer="182" from-port="1" to-layer="190" to-port="0"/>
		<edge from-layer="183" from-port="1" to-layer="187" to-port="0"/>
		<edge from-layer="184" from-port="0" to-layer="187" to-port="1"/>
		<edge from-layer="185" from-port="0" to-layer="187" to-port="2"/>
		<edge from-layer="186" from-port="0" to-layer="187" to-port="3"/>
		<edge from-layer="187" from-port="4" to-layer="189" to-port="0"/>
		<edge from-layer="188" from-port="0" to-layer="189" to-port="1"/>
		<edge from-layer="189" from-port="2" to-layer="190" to-port="1"/>
		<edge from-layer="190" from-port="2" to-layer="192" to-port="0"/>
		<edge from-layer="191" from-port="0" to-layer="192" to-port="1"/>
		<edge from-layer="192" from-port="2" to-layer="194" to-port="0"/>
		<edge from-layer="192" from-port="2" to-layer="251" to-port="0"/>
		<edge from-layer="193" from-port="0" to-layer="194" to-port="1"/>
		<edge from-layer="194" from-port="2" to-layer="196" to-port="0"/>
		<edge from-layer="195" from-port="0" to-layer="196" to-port="1"/>
		<edge from-layer="196" from-port="2" to-layer="198" to-port="0"/>
		<edge from-layer="197" from-port="0" to-layer="198" to-port="1"/>
		<edge from-layer="198" from-port="2" to-layer="200" to-port="0"/>
		<edge from-layer="199" from-port="0" to-layer="200" to-port="1"/>
		<edge from-layer="200" from-port="2" to-layer="202" to-port="0"/>
		<edge from-layer="201" from-port="0" to-layer="202" to-port="1"/>
		<edge from-layer="202" from-port="2" to-layer="204" to-port="0"/>
		<edge from-layer="203" from-port="0" to-layer="204" to-port="1"/>
		<edge from-layer="204" from-port="2" to-layer="206" to-port="0"/>
		<edge from-layer="205" from-port="0" to-layer="206" to-port="1"/>
		<edge from-layer="206" from-port="2" to-layer="210" to-port="0"/>
		<edge from-layer="206" from-port="2" to-layer="218" to-port="0"/>
		<edge from-layer="206" from-port="2" to-layer="239" to-port="0"/>
		<edge from-layer="207" from-port="0" to-layer="210" to-port="1"/>
		<edge from-layer="208" from-port="0" to-layer="210" to-port="2"/>
		<edge from-layer="209" from-port="0" to-layer="210" to-port="3"/>
		<edge from-layer="210" from-port="4" to-layer="212" to-port="0"/>
		<edge from-layer="211" from-port="0" to-layer="212" to-port="1"/>
		<edge from-layer="212" from-port="2" to-layer="214" to-port="0"/>
		<edge from-layer="213" from-port="0" to-layer="214" to-port="1"/>
		<edge from-layer="214" from-port="2" to-layer="223" to-port="0"/>
		<edge from-layer="215" from-port="0" to-layer="218" to-port="1"/>
		<edge from-layer="216" from-port="0" to-layer="218" to-port="2"/>
		<edge from-layer="217" from-port="0" to-layer="218" to-port="3"/>
		<edge from-layer="218" from-port="4" to-layer="220" to-port="0"/>
		<edge from-layer="219" from-port="0" to-layer="220" to-port="1"/>
		<edge from-layer="220" from-port="2" to-layer="222" to-port="0"/>
		<edge from-layer="221" from-port="0" to-layer="222" to-port="1"/>
		<edge from-layer="222" from-port="2" to-layer="223" to-port="1"/>
		<edge from-layer="223" from-port="2" to-layer="224" to-port="0"/>
		<edge from-layer="223" from-port="2" to-layer="233" to-port="0"/>
		<edge from-layer="224" from-port="1" to-layer="228" to-port="0"/>
		<edge from-layer="224" from-port="1" to-layer="235" to-port="1"/>
		<edge from-layer="225" from-port="0" to-layer="228" to-port="1"/>
		<edge from-layer="226" from-port="0" to-layer="228" to-port="2"/>
		<edge from-layer="227" from-port="0" to-layer="228" to-port="3"/>
		<edge from-layer="228" from-port="4" to-layer="230" to-port="0"/>
		<edge from-layer="229" from-port="0" to-layer="230" to-port="1"/>
		<edge from-layer="230" from-port="2" to-layer="232" to-port="0"/>
		<edge from-layer="231" from-port="0" to-layer="232" to-port="1"/>
		<edge from-layer="232" from-port="2" to-layer="233" to-port="1"/>
		<edge from-layer="233" from-port="2" to-layer="234" to-port="0"/>
		<edge from-layer="234" from-port="1" to-layer="235" to-port="0"/>
		<edge from-layer="235" from-port="2" to-layer="242" to-port="0"/>
		<edge from-layer="236" from-port="0" to-layer="239" to-port="1"/>
		<edge from-layer="237" from-port="0" to-layer="239" to-port="2"/>
		<edge from-layer="238" from-port="0" to-layer="239" to-port="3"/>
		<edge from-layer="239" from-port="4" to-layer="241" to-port="0"/>
		<edge from-layer="240" from-port="0" to-layer="241" to-port="1"/>
		<edge from-layer="241" from-port="2" to-layer="242" to-port="1"/>
		<edge from-layer="242" from-port="2" to-layer="244" to-port="0"/>
		<edge from-layer="243" from-port="0" to-layer="244" to-port="1"/>
		<edge from-layer="244" from-port="2" to-layer="246" to-port="0"/>
		<edge from-layer="245" from-port="0" to-layer="246" to-port="1"/>
		<edge from-layer="246" from-port="2" to-layer="248" to-port="0"/>
		<edge from-layer="247" from-port="0" to-layer="248" to-port="1"/>
		<edge from-layer="248" from-port="2" to-layer="250" to-port="0"/>
		<edge from-layer="249" from-port="0" to-layer="250" to-port="1"/>
		<edge from-layer="250" from-port="2" to-layer="251" to-port="1"/>
		<edge from-layer="251" from-port="2" to-layer="253" to-port="0"/>
		<edge from-layer="251" from-port="2" to-layer="267" to-port="0"/>
		<edge from-layer="252" from-port="0" to-layer="253" to-port="1"/>
		<edge from-layer="253" from-port="2" to-layer="255" to-port="0"/>
		<edge from-layer="254" from-port="0" to-layer="255" to-port="1"/>
		<edge from-layer="255" from-port="2" to-layer="257" to-port="0"/>
		<edge from-layer="256" from-port="0" to-layer="257" to-port="1"/>
		<edge from-layer="257" from-port="2" to-layer="259" to-port="0"/>
		<edge from-layer="258" from-port="0" to-layer="259" to-port="1"/>
		<edge from-layer="259" from-port="2" to-layer="261" to-port="0"/>
		<edge from-layer="260" from-port="0" to-layer="261" to-port="1"/>
		<edge from-layer="261" from-port="2" to-layer="262" to-port="0"/>
		<edge from-layer="262" from-port="1" to-layer="264" to-port="0"/>
		<edge from-layer="263" from-port="0" to-layer="264" to-port="1"/>
		<edge from-layer="264" from-port="2" to-layer="266" to-port="0"/>
		<edge from-layer="265" from-port="0" to-layer="266" to-port="1"/>
		<edge from-layer="266" from-port="2" to-layer="267" to-port="1"/>
		<edge from-layer="267" from-port="2" to-layer="269" to-port="0"/>
		<edge from-layer="267" from-port="2" to-layer="326" to-port="0"/>
		<edge from-layer="268" from-port="0" to-layer="269" to-port="1"/>
		<edge from-layer="269" from-port="2" to-layer="271" to-port="0"/>
		<edge from-layer="270" from-port="0" to-layer="271" to-port="1"/>
		<edge from-layer="271" from-port="2" to-layer="273" to-port="0"/>
		<edge from-layer="272" from-port="0" to-layer="273" to-port="1"/>
		<edge from-layer="273" from-port="2" to-layer="275" to-port="0"/>
		<edge from-layer="274" from-port="0" to-layer="275" to-port="1"/>
		<edge from-layer="275" from-port="2" to-layer="277" to-port="0"/>
		<edge from-layer="276" from-port="0" to-layer="277" to-port="1"/>
		<edge from-layer="277" from-port="2" to-layer="279" to-port="0"/>
		<edge from-layer="278" from-port="0" to-layer="279" to-port="1"/>
		<edge from-layer="279" from-port="2" to-layer="281" to-port="0"/>
		<edge from-layer="280" from-port="0" to-layer="281" to-port="1"/>
		<edge from-layer="281" from-port="2" to-layer="285" to-port="0"/>
		<edge from-layer="281" from-port="2" to-layer="293" to-port="0"/>
		<edge from-layer="281" from-port="2" to-layer="314" to-port="0"/>
		<edge from-layer="282" from-port="0" to-layer="285" to-port="1"/>
		<edge from-layer="283" from-port="0" to-layer="285" to-port="2"/>
		<edge from-layer="284" from-port="0" to-layer="285" to-port="3"/>
		<edge from-layer="285" from-port="4" to-layer="287" to-port="0"/>
		<edge from-layer="286" from-port="0" to-layer="287" to-port="1"/>
		<edge from-layer="287" from-port="2" to-layer="289" to-port="0"/>
		<edge from-layer="288" from-port="0" to-layer="289" to-port="1"/>
		<edge from-layer="289" from-port="2" to-layer="298" to-port="0"/>
		<edge from-layer="290" from-port="0" to-layer="293" to-port="1"/>
		<edge from-layer="291" from-port="0" to-layer="293" to-port="2"/>
		<edge from-layer="292" from-port="0" to-layer="293" to-port="3"/>
		<edge from-layer="293" from-port="4" to-layer="295" to-port="0"/>
		<edge from-layer="294" from-port="0" to-layer="295" to-port="1"/>
		<edge from-layer="295" from-port="2" to-layer="297" to-port="0"/>
		<edge from-layer="296" from-port="0" to-layer="297" to-port="1"/>
		<edge from-layer="297" from-port="2" to-layer="298" to-port="1"/>
		<edge from-layer="298" from-port="2" to-layer="299" to-port="0"/>
		<edge from-layer="298" from-port="2" to-layer="308" to-port="0"/>
		<edge from-layer="299" from-port="1" to-layer="303" to-port="0"/>
		<edge from-layer="299" from-port="1" to-layer="310" to-port="1"/>
		<edge from-layer="300" from-port="0" to-layer="303" to-port="1"/>
		<edge from-layer="301" from-port="0" to-layer="303" to-port="2"/>
		<edge from-layer="302" from-port="0" to-layer="303" to-port="3"/>
		<edge from-layer="303" from-port="4" to-layer="305" to-port="0"/>
		<edge from-layer="304" from-port="0" to-layer="305" to-port="1"/>
		<edge from-layer="305" from-port="2" to-layer="307" to-port="0"/>
		<edge from-layer="306" from-port="0" to-layer="307" to-port="1"/>
		<edge from-layer="307" from-port="2" to-layer="308" to-port="1"/>
		<edge from-layer="308" from-port="2" to-layer="309" to-port="0"/>
		<edge from-layer="309" from-port="1" to-layer="310" to-port="0"/>
		<edge from-layer="310" from-port="2" to-layer="317" to-port="0"/>
		<edge from-layer="311" from-port="0" to-layer="314" to-port="1"/>
		<edge from-layer="312" from-port="0" to-layer="314" to-port="2"/>
		<edge from-layer="313" from-port="0" to-layer="314" to-port="3"/>
		<edge from-layer="314" from-port="4" to-layer="316" to-port="0"/>
		<edge from-layer="315" from-port="0" to-layer="316" to-port="1"/>
		<edge from-layer="316" from-port="2" to-layer="317" to-port="1"/>
		<edge from-layer="317" from-port="2" to-layer="319" to-port="0"/>
		<edge from-layer="318" from-port="0" to-layer="319" to-port="1"/>
		<edge from-layer="319" from-port="2" to-layer="321" to-port="0"/>
		<edge from-layer="320" from-port="0" to-layer="321" to-port="1"/>
		<edge from-layer="321" from-port="2" to-layer="323" to-port="0"/>
		<edge from-layer="322" from-port="0" to-layer="323" to-port="1"/>
		<edge from-layer="323" from-port="2" to-layer="325" to-port="0"/>
		<edge from-layer="324" from-port="0" to-layer="325" to-port="1"/>
		<edge from-layer="325" from-port="2" to-layer="326" to-port="1"/>
		<edge from-layer="326" from-port="2" to-layer="328" to-port="0"/>
		<edge from-layer="326" from-port="2" to-layer="342" to-port="0"/>
		<edge from-layer="327" from-port="0" to-layer="328" to-port="1"/>
		<edge from-layer="328" from-port="2" to-layer="330" to-port="0"/>
		<edge from-layer="329" from-port="0" to-layer="330" to-port="1"/>
		<edge from-layer="330" from-port="2" to-layer="332" to-port="0"/>
		<edge from-layer="331" from-port="0" to-layer="332" to-port="1"/>
		<edge from-layer="332" from-port="2" to-layer="334" to-port="0"/>
		<edge from-layer="333" from-port="0" to-layer="334" to-port="1"/>
		<edge from-layer="334" from-port="2" to-layer="336" to-port="0"/>
		<edge from-layer="335" from-port="0" to-layer="336" to-port="1"/>
		<edge from-layer="336" from-port="2" to-layer="337" to-port="0"/>
		<edge from-layer="337" from-port="1" to-layer="339" to-port="0"/>
		<edge from-layer="338" from-port="0" to-layer="339" to-port="1"/>
		<edge from-layer="339" from-port="2" to-layer="341" to-port="0"/>
		<edge from-layer="340" from-port="0" to-layer="341" to-port="1"/>
		<edge from-layer="341" from-port="2" to-layer="342" to-port="1"/>
		<edge from-layer="342" from-port="2" to-layer="344" to-port="0"/>
		<edge from-layer="343" from-port="0" to-layer="344" to-port="1"/>
		<edge from-layer="344" from-port="2" to-layer="346" to-port="0"/>
		<edge from-layer="345" from-port="0" to-layer="346" to-port="1"/>
		<edge from-layer="346" from-port="2" to-layer="348" to-port="0"/>
		<edge from-layer="347" from-port="0" to-layer="348" to-port="1"/>
		<edge from-layer="348" from-port="2" to-layer="350" to-port="0"/>
		<edge from-layer="349" from-port="0" to-layer="350" to-port="1"/>
		<edge from-layer="350" from-port="2" to-layer="352" to-port="0"/>
		<edge from-layer="351" from-port="0" to-layer="352" to-port="1"/>
		<edge from-layer="352" from-port="2" to-layer="354" to-port="0"/>
		<edge from-layer="353" from-port="0" to-layer="354" to-port="1"/>
		<edge from-layer="354" from-port="2" to-layer="356" to-port="0"/>
		<edge from-layer="355" from-port="0" to-layer="356" to-port="1"/>
		<edge from-layer="356" from-port="2" to-layer="357" to-port="0"/>
		<edge from-layer="357" from-port="1" to-layer="358" to-port="1"/>
		<edge from-layer="358" from-port="2" to-layer="360" to-port="0"/>
		<edge from-layer="359" from-port="0" to-layer="360" to-port="1"/>
		<edge from-layer="360" from-port="2" to-layer="362" to-port="0"/>
		<edge from-layer="361" from-port="0" to-layer="362" to-port="1"/>
		<edge from-layer="362" from-port="2" to-layer="363" to-port="0"/>
		<edge from-layer="363" from-port="1" to-layer="365" to-port="0"/>
		<edge from-layer="364" from-port="0" to-layer="365" to-port="1"/>
		<edge from-layer="365" from-port="2" to-layer="367" to-port="0"/>
		<edge from-layer="366" from-port="0" to-layer="367" to-port="1"/>
		<edge from-layer="367" from-port="2" to-layer="368" to-port="0"/>
		<edge from-layer="368" from-port="1" to-layer="370" to-port="0"/>
		<edge from-layer="369" from-port="0" to-layer="370" to-port="1"/>
		<edge from-layer="370" from-port="2" to-layer="372" to-port="0"/>
		<edge from-layer="371" from-port="0" to-layer="372" to-port="1"/>
		<edge from-layer="372" from-port="2" to-layer="374" to-port="0"/>
		<edge from-layer="373" from-port="0" to-layer="374" to-port="1"/>
		<edge from-layer="374" from-port="2" to-layer="376" to-port="0"/>
		<edge from-layer="375" from-port="0" to-layer="376" to-port="1"/>
		<edge from-layer="376" from-port="2" to-layer="377" to-port="0"/>
		<edge from-layer="376" from-port="2" to-layer="386" to-port="0"/>
		<edge from-layer="377" from-port="1" to-layer="381" to-port="0"/>
		<edge from-layer="377" from-port="1" to-layer="388" to-port="1"/>
		<edge from-layer="378" from-port="0" to-layer="381" to-port="1"/>
		<edge from-layer="379" from-port="0" to-layer="381" to-port="2"/>
		<edge from-layer="380" from-port="0" to-layer="381" to-port="3"/>
		<edge from-layer="381" from-port="4" to-layer="383" to-port="0"/>
		<edge from-layer="382" from-port="0" to-layer="383" to-port="1"/>
		<edge from-layer="383" from-port="2" to-layer="385" to-port="0"/>
		<edge from-layer="384" from-port="0" to-layer="385" to-port="1"/>
		<edge from-layer="385" from-port="2" to-layer="386" to-port="1"/>
		<edge from-layer="386" from-port="2" to-layer="387" to-port="0"/>
		<edge from-layer="387" from-port="1" to-layer="388" to-port="0"/>
		<edge from-layer="388" from-port="2" to-layer="389" to-port="0"/>
	</edges>
	<meta_data>
		<MO_version value="2022.1.0-7019-cdb9bec7210-releases/2022/1"/>
		<Runtime_version value="2022.1.0-7019-cdb9bec7210-releases/2022/1"/>
		<legacy_path value="False"/>
		<cli_parameters>
			<caffe_parser_path value="DIR"/>
			<compress_fp16 value="False"/>
			<data_type value="float"/>
			<disable_nhwc_to_nchw value="False"/>
			<disable_omitting_optional value="False"/>
			<disable_resnet_optimization value="False"/>
			<disable_weights_compression value="False"/>
			<enable_concat_optimization value="False"/>
			<enable_flattening_nested_params value="False"/>
			<enable_ssd_gluoncv value="False"/>
			<extensions value="DIR"/>
			<framework value="onnx"/>
			<freeze_placeholder_with_value value="{}"/>
			<input_model value="DIR\model.onnx"/>
			<input_model_is_text value="False"/>
			<k value="DIR\CustomLayersMapping.xml"/>
			<layout value="()"/>
			<layout_values value="{}"/>
			<legacy_mxnet_model value="False"/>
			<log_level value="ERROR"/>
			<mean_scale_values value="{}"/>
			<mean_values value="()"/>
			<model_name value="model"/>
			<output_dir value="DIR"/>
			<placeholder_data_types value="{}"/>
			<progress value="False"/>
			<remove_memory value="False"/>
			<remove_output_softmax value="False"/>
			<reverse_input_channels value="False"/>
			<save_params_from_nd value="False"/>
			<scale_values value="()"/>
			<silent value="False"/>
			<source_layout value="()"/>
			<static_shape value="False"/>
			<stream_output value="False"/>
			<target_layout value="()"/>
			<transform value=""/>
			<use_legacy_frontend value="False"/>
			<use_new_frontend value="False"/>
			<unset unset_cli_parameters="batch, counts, disable_fusing, finegrain_fusing, input, input_checkpoint, input_meta_graph, input_proto, input_shape, input_symbol, mean_file, mean_file_offsets, nd_prefix_name, output, placeholder_shapes, pretrained_model_name, saved_model_dir, saved_model_tags, scale, tensorboard_logdir, tensorflow_custom_layer_libraries, tensorflow_custom_operations_config_update, tensorflow_object_detection_api_pipeline_config, tensorflow_use_custom_operations_config, transformations_config"/>
		</cli_parameters>
	</meta_data>
</net>
